{
  "nodes": [
    {
      "op": "null", 
      "name": "data", 
      "inputs": []
    }, 
    {
      "op": "null", 
      "name": "bn_data_gamma", 
      "inputs": []
    }, 
    {
      "op": "null", 
      "name": "bn_data_beta", 
      "inputs": []
    }, 
    {
      "op": "null", 
      "name": "bn_data_moving_mean", 
      "attr": {
        "__init__": "[\"zero\", {}]", 
        "eps": "2e-05", 
        "fix_gamma": "True", 
        "momentum": "0.9", 
        "use_global_stats": "False"
      }, 
      "inputs": []
    }, 
    {
      "op": "null", 
      "name": "bn_data_moving_var", 
      "attr": {
        "__init__": "[\"one\", {}]", 
        "eps": "2e-05", 
        "fix_gamma": "True", 
        "momentum": "0.9", 
        "use_global_stats": "False"
      }, 
      "inputs": []
    }, 
    {
      "op": "BatchNorm", 
      "name": "bn_data", 
      "attr": {
        "eps": "2e-05", 
        "fix_gamma": "True", 
        "momentum": "0.9", 
        "use_global_stats": "False"
      }, 
      "inputs": [[0, 0, 0], [1, 0, 0], [2, 0, 0], [3, 0, 0], [4, 0, 0]]
    }, 
    {
      "op": "null", 
      "name": "conv0_weight", 
      "inputs": []
    }, 
    {
      "op": "Convolution", 
      "name": "conv0", 
      "attr": {
        "cudnn_off": "False", 
        "dilate": "(1,1)", 
        "kernel": "(7,7)", 
        "no_bias": "True", 
        "num_filter": "64", 
        "num_group": "1", 
        "pad": "(3,3)", 
        "stride": "(2,2)", 
        "workspace": "512"
      }, 
      "inputs": [[5, 0, 0], [6, 0, 0]]
    }, 
    {
      "op": "null", 
      "name": "bn0_gamma", 
      "inputs": []
    }, 
    {
      "op": "null", 
      "name": "bn0_beta", 
      "inputs": []
    }, 
    {
      "op": "null", 
      "name": "bn0_moving_mean", 
      "attr": {
        "__init__": "[\"zero\", {}]", 
        "eps": "2e-05", 
        "fix_gamma": "False", 
        "momentum": "0.9", 
        "use_global_stats": "False"
      }, 
      "inputs": []
    }, 
    {
      "op": "null", 
      "name": "bn0_moving_var", 
      "attr": {
        "__init__": "[\"one\", {}]", 
        "eps": "2e-05", 
        "fix_gamma": "False", 
        "momentum": "0.9", 
        "use_global_stats": "False"
      }, 
      "inputs": []
    }, 
    {
      "op": "BatchNorm", 
      "name": "bn0", 
      "attr": {
        "eps": "2e-05", 
        "fix_gamma": "False", 
        "momentum": "0.9", 
        "use_global_stats": "False"
      }, 
      "inputs": [[7, 0, 0], [8, 0, 0], [9, 0, 0], [10, 0, 0], [11, 0, 0]]
    }, 
    {
      "op": "Activation", 
      "name": "relu0", 
      "attr": {"act_type": "relu"}, 
      "inputs": [[12, 0, 0]]
    }, 
    {
      "op": "Pooling", 
      "name": "pooling0", 
      "attr": {
        "global_pool": "False", 
        "kernel": "(3,3)", 
        "pad": "(1,1)", 
        "pool_type": "max", 
        "pooling_convention": "valid", 
        "stride": "(2,2)"
      }, 
      "inputs": [[13, 0, 0]]
    }, 
    {
      "op": "null", 
      "name": "stage1_unit1_bn1_gamma", 
      "inputs": []
    }, 
    {
      "op": "null", 
      "name": "stage1_unit1_bn1_beta", 
      "inputs": []
    }, 
    {
      "op": "null", 
      "name": "stage1_unit1_bn1_moving_mean", 
      "attr": {
        "__init__": "[\"zero\", {}]", 
        "eps": "2e-05", 
        "fix_gamma": "False", 
        "momentum": "0.9", 
        "use_global_stats": "False"
      }, 
      "inputs": []
    }, 
    {
      "op": "null", 
      "name": "stage1_unit1_bn1_moving_var", 
      "attr": {
        "__init__": "[\"one\", {}]", 
        "eps": "2e-05", 
        "fix_gamma": "False", 
        "momentum": "0.9", 
        "use_global_stats": "False"
      }, 
      "inputs": []
    }, 
    {
      "op": "BatchNorm", 
      "name": "stage1_unit1_bn1", 
      "attr": {
        "eps": "2e-05", 
        "fix_gamma": "False", 
        "momentum": "0.9", 
        "use_global_stats": "False"
      }, 
      "inputs": [[14, 0, 0], [15, 0, 0], [16, 0, 0], [17, 0, 0], [18, 0, 0]]
    }, 
    {
      "op": "Activation", 
      "name": "stage1_unit1_relu1", 
      "attr": {"act_type": "relu"}, 
      "inputs": [[19, 0, 0]]
    }, 
    {
      "op": "null", 
      "name": "stage1_unit1_conv1_weight", 
      "inputs": []
    }, 
    {
      "op": "Convolution", 
      "name": "stage1_unit1_conv1", 
      "attr": {
        "cudnn_off": "False", 
        "dilate": "(1,1)", 
        "kernel": "(1,1)", 
        "no_bias": "True", 
        "num_filter": "64", 
        "num_group": "1", 
        "pad": "(0,0)", 
        "stride": "(1,1)", 
        "workspace": "512"
      }, 
      "inputs": [[20, 0, 0], [21, 0, 0]]
    }, 
    {
      "op": "null", 
      "name": "stage1_unit1_bn2_gamma", 
      "inputs": []
    }, 
    {
      "op": "null", 
      "name": "stage1_unit1_bn2_beta", 
      "inputs": []
    }, 
    {
      "op": "null", 
      "name": "stage1_unit1_bn2_moving_mean", 
      "attr": {
        "__init__": "[\"zero\", {}]", 
        "eps": "2e-05", 
        "fix_gamma": "False", 
        "momentum": "0.9", 
        "use_global_stats": "False"
      }, 
      "inputs": []
    }, 
    {
      "op": "null", 
      "name": "stage1_unit1_bn2_moving_var", 
      "attr": {
        "__init__": "[\"one\", {}]", 
        "eps": "2e-05", 
        "fix_gamma": "False", 
        "momentum": "0.9", 
        "use_global_stats": "False"
      }, 
      "inputs": []
    }, 
    {
      "op": "BatchNorm", 
      "name": "stage1_unit1_bn2", 
      "attr": {
        "eps": "2e-05", 
        "fix_gamma": "False", 
        "momentum": "0.9", 
        "use_global_stats": "False"
      }, 
      "inputs": [[22, 0, 0], [23, 0, 0], [24, 0, 0], [25, 0, 0], [26, 0, 0]]
    }, 
    {
      "op": "Activation", 
      "name": "stage1_unit1_relu2", 
      "attr": {"act_type": "relu"}, 
      "inputs": [[27, 0, 0]]
    }, 
    {
      "op": "null", 
      "name": "stage1_unit1_conv2_weight", 
      "inputs": []
    }, 
    {
      "op": "Convolution", 
      "name": "stage1_unit1_conv2", 
      "attr": {
        "cudnn_off": "False", 
        "dilate": "(1,1)", 
        "kernel": "(3,3)", 
        "no_bias": "True", 
        "num_filter": "64", 
        "num_group": "1", 
        "pad": "(1,1)", 
        "stride": "(1,1)", 
        "workspace": "512"
      }, 
      "inputs": [[28, 0, 0], [29, 0, 0]]
    }, 
    {
      "op": "null", 
      "name": "stage1_unit1_bn3_gamma", 
      "inputs": []
    }, 
    {
      "op": "null", 
      "name": "stage1_unit1_bn3_beta", 
      "inputs": []
    }, 
    {
      "op": "null", 
      "name": "stage1_unit1_bn3_moving_mean", 
      "attr": {
        "__init__": "[\"zero\", {}]", 
        "eps": "2e-05", 
        "fix_gamma": "False", 
        "momentum": "0.9", 
        "use_global_stats": "False"
      }, 
      "inputs": []
    }, 
    {
      "op": "null", 
      "name": "stage1_unit1_bn3_moving_var", 
      "attr": {
        "__init__": "[\"one\", {}]", 
        "eps": "2e-05", 
        "fix_gamma": "False", 
        "momentum": "0.9", 
        "use_global_stats": "False"
      }, 
      "inputs": []
    }, 
    {
      "op": "BatchNorm", 
      "name": "stage1_unit1_bn3", 
      "attr": {
        "eps": "2e-05", 
        "fix_gamma": "False", 
        "momentum": "0.9", 
        "use_global_stats": "False"
      }, 
      "inputs": [[30, 0, 0], [31, 0, 0], [32, 0, 0], [33, 0, 0], [34, 0, 0]]
    }, 
    {
      "op": "Activation", 
      "name": "stage1_unit1_relu3", 
      "attr": {"act_type": "relu"}, 
      "inputs": [[35, 0, 0]]
    }, 
    {
      "op": "null", 
      "name": "stage1_unit1_conv3_weight", 
      "inputs": []
    }, 
    {
      "op": "Convolution", 
      "name": "stage1_unit1_conv3", 
      "attr": {
        "cudnn_off": "False", 
        "dilate": "(1,1)", 
        "kernel": "(1,1)", 
        "no_bias": "True", 
        "num_filter": "256", 
        "num_group": "1", 
        "pad": "(0,0)", 
        "stride": "(1,1)", 
        "workspace": "512"
      }, 
      "inputs": [[36, 0, 0], [37, 0, 0]]
    }, 
    {
      "op": "null", 
      "name": "stage1_unit1_sc_weight", 
      "inputs": []
    }, 
    {
      "op": "Convolution", 
      "name": "stage1_unit1_sc", 
      "attr": {
        "cudnn_off": "False", 
        "dilate": "(1,1)", 
        "kernel": "(1,1)", 
        "no_bias": "True", 
        "num_filter": "256", 
        "num_group": "1", 
        "pad": "(0,0)", 
        "stride": "(1,1)", 
        "workspace": "512"
      }, 
      "inputs": [[20, 0, 0], [39, 0, 0]]
    }, 
    {
      "op": "elemwise_add", 
      "name": "_plus0", 
      "inputs": [[38, 0, 0], [40, 0, 0]]
    }, 
    {
      "op": "null", 
      "name": "stage1_unit2_bn1_gamma", 
      "inputs": []
    }, 
    {
      "op": "null", 
      "name": "stage1_unit2_bn1_beta", 
      "inputs": []
    }, 
    {
      "op": "null", 
      "name": "stage1_unit2_bn1_moving_mean", 
      "attr": {
        "__init__": "[\"zero\", {}]", 
        "eps": "2e-05", 
        "fix_gamma": "False", 
        "momentum": "0.9", 
        "use_global_stats": "False"
      }, 
      "inputs": []
    }, 
    {
      "op": "null", 
      "name": "stage1_unit2_bn1_moving_var", 
      "attr": {
        "__init__": "[\"one\", {}]", 
        "eps": "2e-05", 
        "fix_gamma": "False", 
        "momentum": "0.9", 
        "use_global_stats": "False"
      }, 
      "inputs": []
    }, 
    {
      "op": "BatchNorm", 
      "name": "stage1_unit2_bn1", 
      "attr": {
        "eps": "2e-05", 
        "fix_gamma": "False", 
        "momentum": "0.9", 
        "use_global_stats": "False"
      }, 
      "inputs": [[41, 0, 0], [42, 0, 0], [43, 0, 0], [44, 0, 0], [45, 0, 0]]
    }, 
    {
      "op": "Activation", 
      "name": "stage1_unit2_relu1", 
      "attr": {"act_type": "relu"}, 
      "inputs": [[46, 0, 0]]
    }, 
    {
      "op": "null", 
      "name": "stage1_unit2_conv1_weight", 
      "inputs": []
    }, 
    {
      "op": "Convolution", 
      "name": "stage1_unit2_conv1", 
      "attr": {
        "cudnn_off": "False", 
        "dilate": "(1,1)", 
        "kernel": "(1,1)", 
        "no_bias": "True", 
        "num_filter": "64", 
        "num_group": "1", 
        "pad": "(0,0)", 
        "stride": "(1,1)", 
        "workspace": "512"
      }, 
      "inputs": [[47, 0, 0], [48, 0, 0]]
    }, 
    {
      "op": "null", 
      "name": "stage1_unit2_bn2_gamma", 
      "inputs": []
    }, 
    {
      "op": "null", 
      "name": "stage1_unit2_bn2_beta", 
      "inputs": []
    }, 
    {
      "op": "null", 
      "name": "stage1_unit2_bn2_moving_mean", 
      "attr": {
        "__init__": "[\"zero\", {}]", 
        "eps": "2e-05", 
        "fix_gamma": "False", 
        "momentum": "0.9", 
        "use_global_stats": "False"
      }, 
      "inputs": []
    }, 
    {
      "op": "null", 
      "name": "stage1_unit2_bn2_moving_var", 
      "attr": {
        "__init__": "[\"one\", {}]", 
        "eps": "2e-05", 
        "fix_gamma": "False", 
        "momentum": "0.9", 
        "use_global_stats": "False"
      }, 
      "inputs": []
    }, 
    {
      "op": "BatchNorm", 
      "name": "stage1_unit2_bn2", 
      "attr": {
        "eps": "2e-05", 
        "fix_gamma": "False", 
        "momentum": "0.9", 
        "use_global_stats": "False"
      }, 
      "inputs": [[49, 0, 0], [50, 0, 0], [51, 0, 0], [52, 0, 0], [53, 0, 0]]
    }, 
    {
      "op": "Activation", 
      "name": "stage1_unit2_relu2", 
      "attr": {"act_type": "relu"}, 
      "inputs": [[54, 0, 0]]
    }, 
    {
      "op": "null", 
      "name": "stage1_unit2_conv2_weight", 
      "inputs": []
    }, 
    {
      "op": "Convolution", 
      "name": "stage1_unit2_conv2", 
      "attr": {
        "cudnn_off": "False", 
        "dilate": "(1,1)", 
        "kernel": "(3,3)", 
        "no_bias": "True", 
        "num_filter": "64", 
        "num_group": "1", 
        "pad": "(1,1)", 
        "stride": "(1,1)", 
        "workspace": "512"
      }, 
      "inputs": [[55, 0, 0], [56, 0, 0]]
    }, 
    {
      "op": "null", 
      "name": "stage1_unit2_bn3_gamma", 
      "inputs": []
    }, 
    {
      "op": "null", 
      "name": "stage1_unit2_bn3_beta", 
      "inputs": []
    }, 
    {
      "op": "null", 
      "name": "stage1_unit2_bn3_moving_mean", 
      "attr": {
        "__init__": "[\"zero\", {}]", 
        "eps": "2e-05", 
        "fix_gamma": "False", 
        "momentum": "0.9", 
        "use_global_stats": "False"
      }, 
      "inputs": []
    }, 
    {
      "op": "null", 
      "name": "stage1_unit2_bn3_moving_var", 
      "attr": {
        "__init__": "[\"one\", {}]", 
        "eps": "2e-05", 
        "fix_gamma": "False", 
        "momentum": "0.9", 
        "use_global_stats": "False"
      }, 
      "inputs": []
    }, 
    {
      "op": "BatchNorm", 
      "name": "stage1_unit2_bn3", 
      "attr": {
        "eps": "2e-05", 
        "fix_gamma": "False", 
        "momentum": "0.9", 
        "use_global_stats": "False"
      }, 
      "inputs": [[57, 0, 0], [58, 0, 0], [59, 0, 0], [60, 0, 0], [61, 0, 0]]
    }, 
    {
      "op": "Activation", 
      "name": "stage1_unit2_relu3", 
      "attr": {"act_type": "relu"}, 
      "inputs": [[62, 0, 0]]
    }, 
    {
      "op": "null", 
      "name": "stage1_unit2_conv3_weight", 
      "inputs": []
    }, 
    {
      "op": "Convolution", 
      "name": "stage1_unit2_conv3", 
      "attr": {
        "cudnn_off": "False", 
        "dilate": "(1,1)", 
        "kernel": "(1,1)", 
        "no_bias": "True", 
        "num_filter": "256", 
        "num_group": "1", 
        "pad": "(0,0)", 
        "stride": "(1,1)", 
        "workspace": "512"
      }, 
      "inputs": [[63, 0, 0], [64, 0, 0]]
    }, 
    {
      "op": "elemwise_add", 
      "name": "_plus1", 
      "inputs": [[65, 0, 0], [41, 0, 0]]
    }, 
    {
      "op": "null", 
      "name": "stage1_unit3_bn1_gamma", 
      "inputs": []
    }, 
    {
      "op": "null", 
      "name": "stage1_unit3_bn1_beta", 
      "inputs": []
    }, 
    {
      "op": "null", 
      "name": "stage1_unit3_bn1_moving_mean", 
      "attr": {
        "__init__": "[\"zero\", {}]", 
        "eps": "2e-05", 
        "fix_gamma": "False", 
        "momentum": "0.9", 
        "use_global_stats": "False"
      }, 
      "inputs": []
    }, 
    {
      "op": "null", 
      "name": "stage1_unit3_bn1_moving_var", 
      "attr": {
        "__init__": "[\"one\", {}]", 
        "eps": "2e-05", 
        "fix_gamma": "False", 
        "momentum": "0.9", 
        "use_global_stats": "False"
      }, 
      "inputs": []
    }, 
    {
      "op": "BatchNorm", 
      "name": "stage1_unit3_bn1", 
      "attr": {
        "eps": "2e-05", 
        "fix_gamma": "False", 
        "momentum": "0.9", 
        "use_global_stats": "False"
      }, 
      "inputs": [[66, 0, 0], [67, 0, 0], [68, 0, 0], [69, 0, 0], [70, 0, 0]]
    }, 
    {
      "op": "Activation", 
      "name": "stage1_unit3_relu1", 
      "attr": {"act_type": "relu"}, 
      "inputs": [[71, 0, 0]]
    }, 
    {
      "op": "null", 
      "name": "stage1_unit3_conv1_weight", 
      "inputs": []
    }, 
    {
      "op": "Convolution", 
      "name": "stage1_unit3_conv1", 
      "attr": {
        "cudnn_off": "False", 
        "dilate": "(1,1)", 
        "kernel": "(1,1)", 
        "no_bias": "True", 
        "num_filter": "64", 
        "num_group": "1", 
        "pad": "(0,0)", 
        "stride": "(1,1)", 
        "workspace": "512"
      }, 
      "inputs": [[72, 0, 0], [73, 0, 0]]
    }, 
    {
      "op": "null", 
      "name": "stage1_unit3_bn2_gamma", 
      "inputs": []
    }, 
    {
      "op": "null", 
      "name": "stage1_unit3_bn2_beta", 
      "inputs": []
    }, 
    {
      "op": "null", 
      "name": "stage1_unit3_bn2_moving_mean", 
      "attr": {
        "__init__": "[\"zero\", {}]", 
        "eps": "2e-05", 
        "fix_gamma": "False", 
        "momentum": "0.9", 
        "use_global_stats": "False"
      }, 
      "inputs": []
    }, 
    {
      "op": "null", 
      "name": "stage1_unit3_bn2_moving_var", 
      "attr": {
        "__init__": "[\"one\", {}]", 
        "eps": "2e-05", 
        "fix_gamma": "False", 
        "momentum": "0.9", 
        "use_global_stats": "False"
      }, 
      "inputs": []
    }, 
    {
      "op": "BatchNorm", 
      "name": "stage1_unit3_bn2", 
      "attr": {
        "eps": "2e-05", 
        "fix_gamma": "False", 
        "momentum": "0.9", 
        "use_global_stats": "False"
      }, 
      "inputs": [[74, 0, 0], [75, 0, 0], [76, 0, 0], [77, 0, 0], [78, 0, 0]]
    }, 
    {
      "op": "Activation", 
      "name": "stage1_unit3_relu2", 
      "attr": {"act_type": "relu"}, 
      "inputs": [[79, 0, 0]]
    }, 
    {
      "op": "null", 
      "name": "stage1_unit3_conv2_weight", 
      "inputs": []
    }, 
    {
      "op": "Convolution", 
      "name": "stage1_unit3_conv2", 
      "attr": {
        "cudnn_off": "False", 
        "dilate": "(1,1)", 
        "kernel": "(3,3)", 
        "no_bias": "True", 
        "num_filter": "64", 
        "num_group": "1", 
        "pad": "(1,1)", 
        "stride": "(1,1)", 
        "workspace": "512"
      }, 
      "inputs": [[80, 0, 0], [81, 0, 0]]
    }, 
    {
      "op": "null", 
      "name": "stage1_unit3_bn3_gamma", 
      "inputs": []
    }, 
    {
      "op": "null", 
      "name": "stage1_unit3_bn3_beta", 
      "inputs": []
    }, 
    {
      "op": "null", 
      "name": "stage1_unit3_bn3_moving_mean", 
      "attr": {
        "__init__": "[\"zero\", {}]", 
        "eps": "2e-05", 
        "fix_gamma": "False", 
        "momentum": "0.9", 
        "use_global_stats": "False"
      }, 
      "inputs": []
    }, 
    {
      "op": "null", 
      "name": "stage1_unit3_bn3_moving_var", 
      "attr": {
        "__init__": "[\"one\", {}]", 
        "eps": "2e-05", 
        "fix_gamma": "False", 
        "momentum": "0.9", 
        "use_global_stats": "False"
      }, 
      "inputs": []
    }, 
    {
      "op": "BatchNorm", 
      "name": "stage1_unit3_bn3", 
      "attr": {
        "eps": "2e-05", 
        "fix_gamma": "False", 
        "momentum": "0.9", 
        "use_global_stats": "False"
      }, 
      "inputs": [[82, 0, 0], [83, 0, 0], [84, 0, 0], [85, 0, 0], [86, 0, 0]]
    }, 
    {
      "op": "Activation", 
      "name": "stage1_unit3_relu3", 
      "attr": {"act_type": "relu"}, 
      "inputs": [[87, 0, 0]]
    }, 
    {
      "op": "null", 
      "name": "stage1_unit3_conv3_weight", 
      "inputs": []
    }, 
    {
      "op": "Convolution", 
      "name": "stage1_unit3_conv3", 
      "attr": {
        "cudnn_off": "False", 
        "dilate": "(1,1)", 
        "kernel": "(1,1)", 
        "no_bias": "True", 
        "num_filter": "256", 
        "num_group": "1", 
        "pad": "(0,0)", 
        "stride": "(1,1)", 
        "workspace": "512"
      }, 
      "inputs": [[88, 0, 0], [89, 0, 0]]
    }, 
    {
      "op": "elemwise_add", 
      "name": "_plus2", 
      "inputs": [[90, 0, 0], [66, 0, 0]]
    }, 
    {
      "op": "null", 
      "name": "stage2_unit1_bn1_gamma", 
      "inputs": []
    }, 
    {
      "op": "null", 
      "name": "stage2_unit1_bn1_beta", 
      "inputs": []
    }, 
    {
      "op": "null", 
      "name": "stage2_unit1_bn1_moving_mean", 
      "attr": {
        "__init__": "[\"zero\", {}]", 
        "eps": "2e-05", 
        "fix_gamma": "False", 
        "momentum": "0.9", 
        "use_global_stats": "False"
      }, 
      "inputs": []
    }, 
    {
      "op": "null", 
      "name": "stage2_unit1_bn1_moving_var", 
      "attr": {
        "__init__": "[\"one\", {}]", 
        "eps": "2e-05", 
        "fix_gamma": "False", 
        "momentum": "0.9", 
        "use_global_stats": "False"
      }, 
      "inputs": []
    }, 
    {
      "op": "BatchNorm", 
      "name": "stage2_unit1_bn1", 
      "attr": {
        "eps": "2e-05", 
        "fix_gamma": "False", 
        "momentum": "0.9", 
        "use_global_stats": "False"
      }, 
      "inputs": [[91, 0, 0], [92, 0, 0], [93, 0, 0], [94, 0, 0], [95, 0, 0]]
    }, 
    {
      "op": "Activation", 
      "name": "stage2_unit1_relu1", 
      "attr": {"act_type": "relu"}, 
      "inputs": [[96, 0, 0]]
    }, 
    {
      "op": "null", 
      "name": "stage2_unit1_conv1_weight", 
      "inputs": []
    }, 
    {
      "op": "Convolution", 
      "name": "stage2_unit1_conv1", 
      "attr": {
        "cudnn_off": "False", 
        "dilate": "(1,1)", 
        "kernel": "(1,1)", 
        "no_bias": "True", 
        "num_filter": "128", 
        "num_group": "1", 
        "pad": "(0,0)", 
        "stride": "(1,1)", 
        "workspace": "512"
      }, 
      "inputs": [[97, 0, 0], [98, 0, 0]]
    }, 
    {
      "op": "null", 
      "name": "stage2_unit1_bn2_gamma", 
      "inputs": []
    }, 
    {
      "op": "null", 
      "name": "stage2_unit1_bn2_beta", 
      "inputs": []
    }, 
    {
      "op": "null", 
      "name": "stage2_unit1_bn2_moving_mean", 
      "attr": {
        "__init__": "[\"zero\", {}]", 
        "eps": "2e-05", 
        "fix_gamma": "False", 
        "momentum": "0.9", 
        "use_global_stats": "False"
      }, 
      "inputs": []
    }, 
    {
      "op": "null", 
      "name": "stage2_unit1_bn2_moving_var", 
      "attr": {
        "__init__": "[\"one\", {}]", 
        "eps": "2e-05", 
        "fix_gamma": "False", 
        "momentum": "0.9", 
        "use_global_stats": "False"
      }, 
      "inputs": []
    }, 
    {
      "op": "BatchNorm", 
      "name": "stage2_unit1_bn2", 
      "attr": {
        "eps": "2e-05", 
        "fix_gamma": "False", 
        "momentum": "0.9", 
        "use_global_stats": "False"
      }, 
      "inputs": [[99, 0, 0], [100, 0, 0], [101, 0, 0], [102, 0, 0], [103, 0, 0]]
    }, 
    {
      "op": "Activation", 
      "name": "stage2_unit1_relu2", 
      "attr": {"act_type": "relu"}, 
      "inputs": [[104, 0, 0]]
    }, 
    {
      "op": "null", 
      "name": "stage2_unit1_conv2_weight", 
      "inputs": []
    }, 
    {
      "op": "Convolution", 
      "name": "stage2_unit1_conv2", 
      "attr": {
        "cudnn_off": "False", 
        "dilate": "(1,1)", 
        "kernel": "(3,3)", 
        "no_bias": "True", 
        "num_filter": "128", 
        "num_group": "1", 
        "pad": "(1,1)", 
        "stride": "(2,2)", 
        "workspace": "512"
      }, 
      "inputs": [[105, 0, 0], [106, 0, 0]]
    }, 
    {
      "op": "null", 
      "name": "stage2_unit1_bn3_gamma", 
      "inputs": []
    }, 
    {
      "op": "null", 
      "name": "stage2_unit1_bn3_beta", 
      "inputs": []
    }, 
    {
      "op": "null", 
      "name": "stage2_unit1_bn3_moving_mean", 
      "attr": {
        "__init__": "[\"zero\", {}]", 
        "eps": "2e-05", 
        "fix_gamma": "False", 
        "momentum": "0.9", 
        "use_global_stats": "False"
      }, 
      "inputs": []
    }, 
    {
      "op": "null", 
      "name": "stage2_unit1_bn3_moving_var", 
      "attr": {
        "__init__": "[\"one\", {}]", 
        "eps": "2e-05", 
        "fix_gamma": "False", 
        "momentum": "0.9", 
        "use_global_stats": "False"
      }, 
      "inputs": []
    }, 
    {
      "op": "BatchNorm", 
      "name": "stage2_unit1_bn3", 
      "attr": {
        "eps": "2e-05", 
        "fix_gamma": "False", 
        "momentum": "0.9", 
        "use_global_stats": "False"
      }, 
      "inputs": [[107, 0, 0], [108, 0, 0], [109, 0, 0], [110, 0, 0], [111, 0, 0]]
    }, 
    {
      "op": "Activation", 
      "name": "stage2_unit1_relu3", 
      "attr": {"act_type": "relu"}, 
      "inputs": [[112, 0, 0]]
    }, 
    {
      "op": "null", 
      "name": "stage2_unit1_conv3_weight", 
      "inputs": []
    }, 
    {
      "op": "Convolution", 
      "name": "stage2_unit1_conv3", 
      "attr": {
        "cudnn_off": "False", 
        "dilate": "(1,1)", 
        "kernel": "(1,1)", 
        "no_bias": "True", 
        "num_filter": "512", 
        "num_group": "1", 
        "pad": "(0,0)", 
        "stride": "(1,1)", 
        "workspace": "512"
      }, 
      "inputs": [[113, 0, 0], [114, 0, 0]]
    }, 
    {
      "op": "null", 
      "name": "stage2_unit1_sc_weight", 
      "inputs": []
    }, 
    {
      "op": "Convolution", 
      "name": "stage2_unit1_sc", 
      "attr": {
        "cudnn_off": "False", 
        "dilate": "(1,1)", 
        "kernel": "(1,1)", 
        "no_bias": "True", 
        "num_filter": "512", 
        "num_group": "1", 
        "pad": "(0,0)", 
        "stride": "(2,2)", 
        "workspace": "512"
      }, 
      "inputs": [[97, 0, 0], [116, 0, 0]]
    }, 
    {
      "op": "elemwise_add", 
      "name": "_plus3", 
      "inputs": [[115, 0, 0], [117, 0, 0]]
    }, 
    {
      "op": "null", 
      "name": "stage2_unit2_bn1_gamma", 
      "inputs": []
    }, 
    {
      "op": "null", 
      "name": "stage2_unit2_bn1_beta", 
      "inputs": []
    }, 
    {
      "op": "null", 
      "name": "stage2_unit2_bn1_moving_mean", 
      "attr": {
        "__init__": "[\"zero\", {}]", 
        "eps": "2e-05", 
        "fix_gamma": "False", 
        "momentum": "0.9", 
        "use_global_stats": "False"
      }, 
      "inputs": []
    }, 
    {
      "op": "null", 
      "name": "stage2_unit2_bn1_moving_var", 
      "attr": {
        "__init__": "[\"one\", {}]", 
        "eps": "2e-05", 
        "fix_gamma": "False", 
        "momentum": "0.9", 
        "use_global_stats": "False"
      }, 
      "inputs": []
    }, 
    {
      "op": "BatchNorm", 
      "name": "stage2_unit2_bn1", 
      "attr": {
        "eps": "2e-05", 
        "fix_gamma": "False", 
        "momentum": "0.9", 
        "use_global_stats": "False"
      }, 
      "inputs": [[118, 0, 0], [119, 0, 0], [120, 0, 0], [121, 0, 0], [122, 0, 0]]
    }, 
    {
      "op": "Activation", 
      "name": "stage2_unit2_relu1", 
      "attr": {"act_type": "relu"}, 
      "inputs": [[123, 0, 0]]
    }, 
    {
      "op": "null", 
      "name": "stage2_unit2_conv1_weight", 
      "inputs": []
    }, 
    {
      "op": "Convolution", 
      "name": "stage2_unit2_conv1", 
      "attr": {
        "cudnn_off": "False", 
        "dilate": "(1,1)", 
        "kernel": "(1,1)", 
        "no_bias": "True", 
        "num_filter": "128", 
        "num_group": "1", 
        "pad": "(0,0)", 
        "stride": "(1,1)", 
        "workspace": "512"
      }, 
      "inputs": [[124, 0, 0], [125, 0, 0]]
    }, 
    {
      "op": "null", 
      "name": "stage2_unit2_bn2_gamma", 
      "inputs": []
    }, 
    {
      "op": "null", 
      "name": "stage2_unit2_bn2_beta", 
      "inputs": []
    }, 
    {
      "op": "null", 
      "name": "stage2_unit2_bn2_moving_mean", 
      "attr": {
        "__init__": "[\"zero\", {}]", 
        "eps": "2e-05", 
        "fix_gamma": "False", 
        "momentum": "0.9", 
        "use_global_stats": "False"
      }, 
      "inputs": []
    }, 
    {
      "op": "null", 
      "name": "stage2_unit2_bn2_moving_var", 
      "attr": {
        "__init__": "[\"one\", {}]", 
        "eps": "2e-05", 
        "fix_gamma": "False", 
        "momentum": "0.9", 
        "use_global_stats": "False"
      }, 
      "inputs": []
    }, 
    {
      "op": "BatchNorm", 
      "name": "stage2_unit2_bn2", 
      "attr": {
        "eps": "2e-05", 
        "fix_gamma": "False", 
        "momentum": "0.9", 
        "use_global_stats": "False"
      }, 
      "inputs": [[126, 0, 0], [127, 0, 0], [128, 0, 0], [129, 0, 0], [130, 0, 0]]
    }, 
    {
      "op": "Activation", 
      "name": "stage2_unit2_relu2", 
      "attr": {"act_type": "relu"}, 
      "inputs": [[131, 0, 0]]
    }, 
    {
      "op": "null", 
      "name": "stage2_unit2_conv2_weight", 
      "inputs": []
    }, 
    {
      "op": "Convolution", 
      "name": "stage2_unit2_conv2", 
      "attr": {
        "cudnn_off": "False", 
        "dilate": "(1,1)", 
        "kernel": "(3,3)", 
        "no_bias": "True", 
        "num_filter": "128", 
        "num_group": "1", 
        "pad": "(1,1)", 
        "stride": "(1,1)", 
        "workspace": "512"
      }, 
      "inputs": [[132, 0, 0], [133, 0, 0]]
    }, 
    {
      "op": "null", 
      "name": "stage2_unit2_bn3_gamma", 
      "inputs": []
    }, 
    {
      "op": "null", 
      "name": "stage2_unit2_bn3_beta", 
      "inputs": []
    }, 
    {
      "op": "null", 
      "name": "stage2_unit2_bn3_moving_mean", 
      "attr": {
        "__init__": "[\"zero\", {}]", 
        "eps": "2e-05", 
        "fix_gamma": "False", 
        "momentum": "0.9", 
        "use_global_stats": "False"
      }, 
      "inputs": []
    }, 
    {
      "op": "null", 
      "name": "stage2_unit2_bn3_moving_var", 
      "attr": {
        "__init__": "[\"one\", {}]", 
        "eps": "2e-05", 
        "fix_gamma": "False", 
        "momentum": "0.9", 
        "use_global_stats": "False"
      }, 
      "inputs": []
    }, 
    {
      "op": "BatchNorm", 
      "name": "stage2_unit2_bn3", 
      "attr": {
        "eps": "2e-05", 
        "fix_gamma": "False", 
        "momentum": "0.9", 
        "use_global_stats": "False"
      }, 
      "inputs": [[134, 0, 0], [135, 0, 0], [136, 0, 0], [137, 0, 0], [138, 0, 0]]
    }, 
    {
      "op": "Activation", 
      "name": "stage2_unit2_relu3", 
      "attr": {"act_type": "relu"}, 
      "inputs": [[139, 0, 0]]
    }, 
    {
      "op": "null", 
      "name": "stage2_unit2_conv3_weight", 
      "inputs": []
    }, 
    {
      "op": "Convolution", 
      "name": "stage2_unit2_conv3", 
      "attr": {
        "cudnn_off": "False", 
        "dilate": "(1,1)", 
        "kernel": "(1,1)", 
        "no_bias": "True", 
        "num_filter": "512", 
        "num_group": "1", 
        "pad": "(0,0)", 
        "stride": "(1,1)", 
        "workspace": "512"
      }, 
      "inputs": [[140, 0, 0], [141, 0, 0]]
    }, 
    {
      "op": "elemwise_add", 
      "name": "_plus4", 
      "inputs": [[142, 0, 0], [118, 0, 0]]
    }, 
    {
      "op": "null", 
      "name": "stage2_unit3_bn1_gamma", 
      "inputs": []
    }, 
    {
      "op": "null", 
      "name": "stage2_unit3_bn1_beta", 
      "inputs": []
    }, 
    {
      "op": "null", 
      "name": "stage2_unit3_bn1_moving_mean", 
      "attr": {
        "__init__": "[\"zero\", {}]", 
        "eps": "2e-05", 
        "fix_gamma": "False", 
        "momentum": "0.9", 
        "use_global_stats": "False"
      }, 
      "inputs": []
    }, 
    {
      "op": "null", 
      "name": "stage2_unit3_bn1_moving_var", 
      "attr": {
        "__init__": "[\"one\", {}]", 
        "eps": "2e-05", 
        "fix_gamma": "False", 
        "momentum": "0.9", 
        "use_global_stats": "False"
      }, 
      "inputs": []
    }, 
    {
      "op": "BatchNorm", 
      "name": "stage2_unit3_bn1", 
      "attr": {
        "eps": "2e-05", 
        "fix_gamma": "False", 
        "momentum": "0.9", 
        "use_global_stats": "False"
      }, 
      "inputs": [[143, 0, 0], [144, 0, 0], [145, 0, 0], [146, 0, 0], [147, 0, 0]]
    }, 
    {
      "op": "Activation", 
      "name": "stage2_unit3_relu1", 
      "attr": {"act_type": "relu"}, 
      "inputs": [[148, 0, 0]]
    }, 
    {
      "op": "null", 
      "name": "stage2_unit3_conv1_weight", 
      "inputs": []
    }, 
    {
      "op": "Convolution", 
      "name": "stage2_unit3_conv1", 
      "attr": {
        "cudnn_off": "False", 
        "dilate": "(1,1)", 
        "kernel": "(1,1)", 
        "no_bias": "True", 
        "num_filter": "128", 
        "num_group": "1", 
        "pad": "(0,0)", 
        "stride": "(1,1)", 
        "workspace": "512"
      }, 
      "inputs": [[149, 0, 0], [150, 0, 0]]
    }, 
    {
      "op": "null", 
      "name": "stage2_unit3_bn2_gamma", 
      "inputs": []
    }, 
    {
      "op": "null", 
      "name": "stage2_unit3_bn2_beta", 
      "inputs": []
    }, 
    {
      "op": "null", 
      "name": "stage2_unit3_bn2_moving_mean", 
      "attr": {
        "__init__": "[\"zero\", {}]", 
        "eps": "2e-05", 
        "fix_gamma": "False", 
        "momentum": "0.9", 
        "use_global_stats": "False"
      }, 
      "inputs": []
    }, 
    {
      "op": "null", 
      "name": "stage2_unit3_bn2_moving_var", 
      "attr": {
        "__init__": "[\"one\", {}]", 
        "eps": "2e-05", 
        "fix_gamma": "False", 
        "momentum": "0.9", 
        "use_global_stats": "False"
      }, 
      "inputs": []
    }, 
    {
      "op": "BatchNorm", 
      "name": "stage2_unit3_bn2", 
      "attr": {
        "eps": "2e-05", 
        "fix_gamma": "False", 
        "momentum": "0.9", 
        "use_global_stats": "False"
      }, 
      "inputs": [[151, 0, 0], [152, 0, 0], [153, 0, 0], [154, 0, 0], [155, 0, 0]]
    }, 
    {
      "op": "Activation", 
      "name": "stage2_unit3_relu2", 
      "attr": {"act_type": "relu"}, 
      "inputs": [[156, 0, 0]]
    }, 
    {
      "op": "null", 
      "name": "stage2_unit3_conv2_weight", 
      "inputs": []
    }, 
    {
      "op": "Convolution", 
      "name": "stage2_unit3_conv2", 
      "attr": {
        "cudnn_off": "False", 
        "dilate": "(1,1)", 
        "kernel": "(3,3)", 
        "no_bias": "True", 
        "num_filter": "128", 
        "num_group": "1", 
        "pad": "(1,1)", 
        "stride": "(1,1)", 
        "workspace": "512"
      }, 
      "inputs": [[157, 0, 0], [158, 0, 0]]
    }, 
    {
      "op": "null", 
      "name": "stage2_unit3_bn3_gamma", 
      "inputs": []
    }, 
    {
      "op": "null", 
      "name": "stage2_unit3_bn3_beta", 
      "inputs": []
    }, 
    {
      "op": "null", 
      "name": "stage2_unit3_bn3_moving_mean", 
      "attr": {
        "__init__": "[\"zero\", {}]", 
        "eps": "2e-05", 
        "fix_gamma": "False", 
        "momentum": "0.9", 
        "use_global_stats": "False"
      }, 
      "inputs": []
    }, 
    {
      "op": "null", 
      "name": "stage2_unit3_bn3_moving_var", 
      "attr": {
        "__init__": "[\"one\", {}]", 
        "eps": "2e-05", 
        "fix_gamma": "False", 
        "momentum": "0.9", 
        "use_global_stats": "False"
      }, 
      "inputs": []
    }, 
    {
      "op": "BatchNorm", 
      "name": "stage2_unit3_bn3", 
      "attr": {
        "eps": "2e-05", 
        "fix_gamma": "False", 
        "momentum": "0.9", 
        "use_global_stats": "False"
      }, 
      "inputs": [[159, 0, 0], [160, 0, 0], [161, 0, 0], [162, 0, 0], [163, 0, 0]]
    }, 
    {
      "op": "Activation", 
      "name": "stage2_unit3_relu3", 
      "attr": {"act_type": "relu"}, 
      "inputs": [[164, 0, 0]]
    }, 
    {
      "op": "null", 
      "name": "stage2_unit3_conv3_weight", 
      "inputs": []
    }, 
    {
      "op": "Convolution", 
      "name": "stage2_unit3_conv3", 
      "attr": {
        "cudnn_off": "False", 
        "dilate": "(1,1)", 
        "kernel": "(1,1)", 
        "no_bias": "True", 
        "num_filter": "512", 
        "num_group": "1", 
        "pad": "(0,0)", 
        "stride": "(1,1)", 
        "workspace": "512"
      }, 
      "inputs": [[165, 0, 0], [166, 0, 0]]
    }, 
    {
      "op": "elemwise_add", 
      "name": "_plus5", 
      "inputs": [[167, 0, 0], [143, 0, 0]]
    }, 
    {
      "op": "null", 
      "name": "stage2_unit4_bn1_gamma", 
      "inputs": []
    }, 
    {
      "op": "null", 
      "name": "stage2_unit4_bn1_beta", 
      "inputs": []
    }, 
    {
      "op": "null", 
      "name": "stage2_unit4_bn1_moving_mean", 
      "attr": {
        "__init__": "[\"zero\", {}]", 
        "eps": "2e-05", 
        "fix_gamma": "False", 
        "momentum": "0.9", 
        "use_global_stats": "False"
      }, 
      "inputs": []
    }, 
    {
      "op": "null", 
      "name": "stage2_unit4_bn1_moving_var", 
      "attr": {
        "__init__": "[\"one\", {}]", 
        "eps": "2e-05", 
        "fix_gamma": "False", 
        "momentum": "0.9", 
        "use_global_stats": "False"
      }, 
      "inputs": []
    }, 
    {
      "op": "BatchNorm", 
      "name": "stage2_unit4_bn1", 
      "attr": {
        "eps": "2e-05", 
        "fix_gamma": "False", 
        "momentum": "0.9", 
        "use_global_stats": "False"
      }, 
      "inputs": [[168, 0, 0], [169, 0, 0], [170, 0, 0], [171, 0, 0], [172, 0, 0]]
    }, 
    {
      "op": "Activation", 
      "name": "stage2_unit4_relu1", 
      "attr": {"act_type": "relu"}, 
      "inputs": [[173, 0, 0]]
    }, 
    {
      "op": "null", 
      "name": "stage2_unit4_conv1_weight", 
      "inputs": []
    }, 
    {
      "op": "Convolution", 
      "name": "stage2_unit4_conv1", 
      "attr": {
        "cudnn_off": "False", 
        "dilate": "(1,1)", 
        "kernel": "(1,1)", 
        "no_bias": "True", 
        "num_filter": "128", 
        "num_group": "1", 
        "pad": "(0,0)", 
        "stride": "(1,1)", 
        "workspace": "512"
      }, 
      "inputs": [[174, 0, 0], [175, 0, 0]]
    }, 
    {
      "op": "null", 
      "name": "stage2_unit4_bn2_gamma", 
      "inputs": []
    }, 
    {
      "op": "null", 
      "name": "stage2_unit4_bn2_beta", 
      "inputs": []
    }, 
    {
      "op": "null", 
      "name": "stage2_unit4_bn2_moving_mean", 
      "attr": {
        "__init__": "[\"zero\", {}]", 
        "eps": "2e-05", 
        "fix_gamma": "False", 
        "momentum": "0.9", 
        "use_global_stats": "False"
      }, 
      "inputs": []
    }, 
    {
      "op": "null", 
      "name": "stage2_unit4_bn2_moving_var", 
      "attr": {
        "__init__": "[\"one\", {}]", 
        "eps": "2e-05", 
        "fix_gamma": "False", 
        "momentum": "0.9", 
        "use_global_stats": "False"
      }, 
      "inputs": []
    }, 
    {
      "op": "BatchNorm", 
      "name": "stage2_unit4_bn2", 
      "attr": {
        "eps": "2e-05", 
        "fix_gamma": "False", 
        "momentum": "0.9", 
        "use_global_stats": "False"
      }, 
      "inputs": [[176, 0, 0], [177, 0, 0], [178, 0, 0], [179, 0, 0], [180, 0, 0]]
    }, 
    {
      "op": "Activation", 
      "name": "stage2_unit4_relu2", 
      "attr": {"act_type": "relu"}, 
      "inputs": [[181, 0, 0]]
    }, 
    {
      "op": "null", 
      "name": "stage2_unit4_conv2_weight", 
      "inputs": []
    }, 
    {
      "op": "Convolution", 
      "name": "stage2_unit4_conv2", 
      "attr": {
        "cudnn_off": "False", 
        "dilate": "(1,1)", 
        "kernel": "(3,3)", 
        "no_bias": "True", 
        "num_filter": "128", 
        "num_group": "1", 
        "pad": "(1,1)", 
        "stride": "(1,1)", 
        "workspace": "512"
      }, 
      "inputs": [[182, 0, 0], [183, 0, 0]]
    }, 
    {
      "op": "null", 
      "name": "stage2_unit4_bn3_gamma", 
      "inputs": []
    }, 
    {
      "op": "null", 
      "name": "stage2_unit4_bn3_beta", 
      "inputs": []
    }, 
    {
      "op": "null", 
      "name": "stage2_unit4_bn3_moving_mean", 
      "attr": {
        "__init__": "[\"zero\", {}]", 
        "eps": "2e-05", 
        "fix_gamma": "False", 
        "momentum": "0.9", 
        "use_global_stats": "False"
      }, 
      "inputs": []
    }, 
    {
      "op": "null", 
      "name": "stage2_unit4_bn3_moving_var", 
      "attr": {
        "__init__": "[\"one\", {}]", 
        "eps": "2e-05", 
        "fix_gamma": "False", 
        "momentum": "0.9", 
        "use_global_stats": "False"
      }, 
      "inputs": []
    }, 
    {
      "op": "BatchNorm", 
      "name": "stage2_unit4_bn3", 
      "attr": {
        "eps": "2e-05", 
        "fix_gamma": "False", 
        "momentum": "0.9", 
        "use_global_stats": "False"
      }, 
      "inputs": [[184, 0, 0], [185, 0, 0], [186, 0, 0], [187, 0, 0], [188, 0, 0]]
    }, 
    {
      "op": "Activation", 
      "name": "stage2_unit4_relu3", 
      "attr": {"act_type": "relu"}, 
      "inputs": [[189, 0, 0]]
    }, 
    {
      "op": "null", 
      "name": "stage2_unit4_conv3_weight", 
      "inputs": []
    }, 
    {
      "op": "Convolution", 
      "name": "stage2_unit4_conv3", 
      "attr": {
        "cudnn_off": "False", 
        "dilate": "(1,1)", 
        "kernel": "(1,1)", 
        "no_bias": "True", 
        "num_filter": "512", 
        "num_group": "1", 
        "pad": "(0,0)", 
        "stride": "(1,1)", 
        "workspace": "512"
      }, 
      "inputs": [[190, 0, 0], [191, 0, 0]]
    }, 
    {
      "op": "elemwise_add", 
      "name": "_plus6", 
      "inputs": [[192, 0, 0], [168, 0, 0]]
    }, 
    {
      "op": "null", 
      "name": "stage3_unit1_bn1_gamma", 
      "inputs": []
    }, 
    {
      "op": "null", 
      "name": "stage3_unit1_bn1_beta", 
      "inputs": []
    }, 
    {
      "op": "null", 
      "name": "stage3_unit1_bn1_moving_mean", 
      "attr": {
        "__init__": "[\"zero\", {}]", 
        "eps": "2e-05", 
        "fix_gamma": "False", 
        "momentum": "0.9", 
        "use_global_stats": "False"
      }, 
      "inputs": []
    }, 
    {
      "op": "null", 
      "name": "stage3_unit1_bn1_moving_var", 
      "attr": {
        "__init__": "[\"one\", {}]", 
        "eps": "2e-05", 
        "fix_gamma": "False", 
        "momentum": "0.9", 
        "use_global_stats": "False"
      }, 
      "inputs": []
    }, 
    {
      "op": "BatchNorm", 
      "name": "stage3_unit1_bn1", 
      "attr": {
        "eps": "2e-05", 
        "fix_gamma": "False", 
        "momentum": "0.9", 
        "use_global_stats": "False"
      }, 
      "inputs": [[193, 0, 0], [194, 0, 0], [195, 0, 0], [196, 0, 0], [197, 0, 0]]
    }, 
    {
      "op": "Activation", 
      "name": "stage3_unit1_relu1", 
      "attr": {"act_type": "relu"}, 
      "inputs": [[198, 0, 0]]
    }, 
    {
      "op": "null", 
      "name": "stage3_unit1_conv1_weight", 
      "inputs": []
    }, 
    {
      "op": "Convolution", 
      "name": "stage3_unit1_conv1", 
      "attr": {
        "cudnn_off": "False", 
        "dilate": "(1,1)", 
        "kernel": "(1,1)", 
        "no_bias": "True", 
        "num_filter": "256", 
        "num_group": "1", 
        "pad": "(0,0)", 
        "stride": "(1,1)", 
        "workspace": "512"
      }, 
      "inputs": [[199, 0, 0], [200, 0, 0]]
    }, 
    {
      "op": "null", 
      "name": "stage3_unit1_bn2_gamma", 
      "inputs": []
    }, 
    {
      "op": "null", 
      "name": "stage3_unit1_bn2_beta", 
      "inputs": []
    }, 
    {
      "op": "null", 
      "name": "stage3_unit1_bn2_moving_mean", 
      "attr": {
        "__init__": "[\"zero\", {}]", 
        "eps": "2e-05", 
        "fix_gamma": "False", 
        "momentum": "0.9", 
        "use_global_stats": "False"
      }, 
      "inputs": []
    }, 
    {
      "op": "null", 
      "name": "stage3_unit1_bn2_moving_var", 
      "attr": {
        "__init__": "[\"one\", {}]", 
        "eps": "2e-05", 
        "fix_gamma": "False", 
        "momentum": "0.9", 
        "use_global_stats": "False"
      }, 
      "inputs": []
    }, 
    {
      "op": "BatchNorm", 
      "name": "stage3_unit1_bn2", 
      "attr": {
        "eps": "2e-05", 
        "fix_gamma": "False", 
        "momentum": "0.9", 
        "use_global_stats": "False"
      }, 
      "inputs": [[201, 0, 0], [202, 0, 0], [203, 0, 0], [204, 0, 0], [205, 0, 0]]
    }, 
    {
      "op": "Activation", 
      "name": "stage3_unit1_relu2", 
      "attr": {"act_type": "relu"}, 
      "inputs": [[206, 0, 0]]
    }, 
    {
      "op": "null", 
      "name": "stage3_unit1_conv2_weight", 
      "inputs": []
    }, 
    {
      "op": "Convolution", 
      "name": "stage3_unit1_conv2", 
      "attr": {
        "cudnn_off": "False", 
        "dilate": "(1,1)", 
        "kernel": "(3,3)", 
        "no_bias": "True", 
        "num_filter": "256", 
        "num_group": "1", 
        "pad": "(1,1)", 
        "stride": "(2,2)", 
        "workspace": "512"
      }, 
      "inputs": [[207, 0, 0], [208, 0, 0]]
    }, 
    {
      "op": "null", 
      "name": "stage3_unit1_bn3_gamma", 
      "inputs": []
    }, 
    {
      "op": "null", 
      "name": "stage3_unit1_bn3_beta", 
      "inputs": []
    }, 
    {
      "op": "null", 
      "name": "stage3_unit1_bn3_moving_mean", 
      "attr": {
        "__init__": "[\"zero\", {}]", 
        "eps": "2e-05", 
        "fix_gamma": "False", 
        "momentum": "0.9", 
        "use_global_stats": "False"
      }, 
      "inputs": []
    }, 
    {
      "op": "null", 
      "name": "stage3_unit1_bn3_moving_var", 
      "attr": {
        "__init__": "[\"one\", {}]", 
        "eps": "2e-05", 
        "fix_gamma": "False", 
        "momentum": "0.9", 
        "use_global_stats": "False"
      }, 
      "inputs": []
    }, 
    {
      "op": "BatchNorm", 
      "name": "stage3_unit1_bn3", 
      "attr": {
        "eps": "2e-05", 
        "fix_gamma": "False", 
        "momentum": "0.9", 
        "use_global_stats": "False"
      }, 
      "inputs": [[209, 0, 0], [210, 0, 0], [211, 0, 0], [212, 0, 0], [213, 0, 0]]
    }, 
    {
      "op": "Activation", 
      "name": "stage3_unit1_relu3", 
      "attr": {"act_type": "relu"}, 
      "inputs": [[214, 0, 0]]
    }, 
    {
      "op": "null", 
      "name": "stage3_unit1_conv3_weight", 
      "inputs": []
    }, 
    {
      "op": "Convolution", 
      "name": "stage3_unit1_conv3", 
      "attr": {
        "cudnn_off": "False", 
        "dilate": "(1,1)", 
        "kernel": "(1,1)", 
        "no_bias": "True", 
        "num_filter": "1024", 
        "num_group": "1", 
        "pad": "(0,0)", 
        "stride": "(1,1)", 
        "workspace": "512"
      }, 
      "inputs": [[215, 0, 0], [216, 0, 0]]
    }, 
    {
      "op": "null", 
      "name": "stage3_unit1_sc_weight", 
      "inputs": []
    }, 
    {
      "op": "Convolution", 
      "name": "stage3_unit1_sc", 
      "attr": {
        "cudnn_off": "False", 
        "dilate": "(1,1)", 
        "kernel": "(1,1)", 
        "no_bias": "True", 
        "num_filter": "1024", 
        "num_group": "1", 
        "pad": "(0,0)", 
        "stride": "(2,2)", 
        "workspace": "512"
      }, 
      "inputs": [[199, 0, 0], [218, 0, 0]]
    }, 
    {
      "op": "elemwise_add", 
      "name": "_plus7", 
      "inputs": [[217, 0, 0], [219, 0, 0]]
    }, 
    {
      "op": "null", 
      "name": "stage3_unit2_bn1_gamma", 
      "inputs": []
    }, 
    {
      "op": "null", 
      "name": "stage3_unit2_bn1_beta", 
      "inputs": []
    }, 
    {
      "op": "null", 
      "name": "stage3_unit2_bn1_moving_mean", 
      "attr": {
        "__init__": "[\"zero\", {}]", 
        "eps": "2e-05", 
        "fix_gamma": "False", 
        "momentum": "0.9", 
        "use_global_stats": "False"
      }, 
      "inputs": []
    }, 
    {
      "op": "null", 
      "name": "stage3_unit2_bn1_moving_var", 
      "attr": {
        "__init__": "[\"one\", {}]", 
        "eps": "2e-05", 
        "fix_gamma": "False", 
        "momentum": "0.9", 
        "use_global_stats": "False"
      }, 
      "inputs": []
    }, 
    {
      "op": "BatchNorm", 
      "name": "stage3_unit2_bn1", 
      "attr": {
        "eps": "2e-05", 
        "fix_gamma": "False", 
        "momentum": "0.9", 
        "use_global_stats": "False"
      }, 
      "inputs": [[220, 0, 0], [221, 0, 0], [222, 0, 0], [223, 0, 0], [224, 0, 0]]
    }, 
    {
      "op": "Activation", 
      "name": "stage3_unit2_relu1", 
      "attr": {"act_type": "relu"}, 
      "inputs": [[225, 0, 0]]
    }, 
    {
      "op": "null", 
      "name": "stage3_unit2_conv1_weight", 
      "inputs": []
    }, 
    {
      "op": "Convolution", 
      "name": "stage3_unit2_conv1", 
      "attr": {
        "cudnn_off": "False", 
        "dilate": "(1,1)", 
        "kernel": "(1,1)", 
        "no_bias": "True", 
        "num_filter": "256", 
        "num_group": "1", 
        "pad": "(0,0)", 
        "stride": "(1,1)", 
        "workspace": "512"
      }, 
      "inputs": [[226, 0, 0], [227, 0, 0]]
    }, 
    {
      "op": "null", 
      "name": "stage3_unit2_bn2_gamma", 
      "inputs": []
    }, 
    {
      "op": "null", 
      "name": "stage3_unit2_bn2_beta", 
      "inputs": []
    }, 
    {
      "op": "null", 
      "name": "stage3_unit2_bn2_moving_mean", 
      "attr": {
        "__init__": "[\"zero\", {}]", 
        "eps": "2e-05", 
        "fix_gamma": "False", 
        "momentum": "0.9", 
        "use_global_stats": "False"
      }, 
      "inputs": []
    }, 
    {
      "op": "null", 
      "name": "stage3_unit2_bn2_moving_var", 
      "attr": {
        "__init__": "[\"one\", {}]", 
        "eps": "2e-05", 
        "fix_gamma": "False", 
        "momentum": "0.9", 
        "use_global_stats": "False"
      }, 
      "inputs": []
    }, 
    {
      "op": "BatchNorm", 
      "name": "stage3_unit2_bn2", 
      "attr": {
        "eps": "2e-05", 
        "fix_gamma": "False", 
        "momentum": "0.9", 
        "use_global_stats": "False"
      }, 
      "inputs": [[228, 0, 0], [229, 0, 0], [230, 0, 0], [231, 0, 0], [232, 0, 0]]
    }, 
    {
      "op": "Activation", 
      "name": "stage3_unit2_relu2", 
      "attr": {"act_type": "relu"}, 
      "inputs": [[233, 0, 0]]
    }, 
    {
      "op": "null", 
      "name": "stage3_unit2_conv2_weight", 
      "inputs": []
    }, 
    {
      "op": "Convolution", 
      "name": "stage3_unit2_conv2", 
      "attr": {
        "cudnn_off": "False", 
        "dilate": "(1,1)", 
        "kernel": "(3,3)", 
        "no_bias": "True", 
        "num_filter": "256", 
        "num_group": "1", 
        "pad": "(1,1)", 
        "stride": "(1,1)", 
        "workspace": "512"
      }, 
      "inputs": [[234, 0, 0], [235, 0, 0]]
    }, 
    {
      "op": "null", 
      "name": "stage3_unit2_bn3_gamma", 
      "inputs": []
    }, 
    {
      "op": "null", 
      "name": "stage3_unit2_bn3_beta", 
      "inputs": []
    }, 
    {
      "op": "null", 
      "name": "stage3_unit2_bn3_moving_mean", 
      "attr": {
        "__init__": "[\"zero\", {}]", 
        "eps": "2e-05", 
        "fix_gamma": "False", 
        "momentum": "0.9", 
        "use_global_stats": "False"
      }, 
      "inputs": []
    }, 
    {
      "op": "null", 
      "name": "stage3_unit2_bn3_moving_var", 
      "attr": {
        "__init__": "[\"one\", {}]", 
        "eps": "2e-05", 
        "fix_gamma": "False", 
        "momentum": "0.9", 
        "use_global_stats": "False"
      }, 
      "inputs": []
    }, 
    {
      "op": "BatchNorm", 
      "name": "stage3_unit2_bn3", 
      "attr": {
        "eps": "2e-05", 
        "fix_gamma": "False", 
        "momentum": "0.9", 
        "use_global_stats": "False"
      }, 
      "inputs": [[236, 0, 0], [237, 0, 0], [238, 0, 0], [239, 0, 0], [240, 0, 0]]
    }, 
    {
      "op": "Activation", 
      "name": "stage3_unit2_relu3", 
      "attr": {"act_type": "relu"}, 
      "inputs": [[241, 0, 0]]
    }, 
    {
      "op": "null", 
      "name": "stage3_unit2_conv3_weight", 
      "inputs": []
    }, 
    {
      "op": "Convolution", 
      "name": "stage3_unit2_conv3", 
      "attr": {
        "cudnn_off": "False", 
        "dilate": "(1,1)", 
        "kernel": "(1,1)", 
        "no_bias": "True", 
        "num_filter": "1024", 
        "num_group": "1", 
        "pad": "(0,0)", 
        "stride": "(1,1)", 
        "workspace": "512"
      }, 
      "inputs": [[242, 0, 0], [243, 0, 0]]
    }, 
    {
      "op": "elemwise_add", 
      "name": "_plus8", 
      "inputs": [[244, 0, 0], [220, 0, 0]]
    }, 
    {
      "op": "null", 
      "name": "stage3_unit3_bn1_gamma", 
      "inputs": []
    }, 
    {
      "op": "null", 
      "name": "stage3_unit3_bn1_beta", 
      "inputs": []
    }, 
    {
      "op": "null", 
      "name": "stage3_unit3_bn1_moving_mean", 
      "attr": {
        "__init__": "[\"zero\", {}]", 
        "eps": "2e-05", 
        "fix_gamma": "False", 
        "momentum": "0.9", 
        "use_global_stats": "False"
      }, 
      "inputs": []
    }, 
    {
      "op": "null", 
      "name": "stage3_unit3_bn1_moving_var", 
      "attr": {
        "__init__": "[\"one\", {}]", 
        "eps": "2e-05", 
        "fix_gamma": "False", 
        "momentum": "0.9", 
        "use_global_stats": "False"
      }, 
      "inputs": []
    }, 
    {
      "op": "BatchNorm", 
      "name": "stage3_unit3_bn1", 
      "attr": {
        "eps": "2e-05", 
        "fix_gamma": "False", 
        "momentum": "0.9", 
        "use_global_stats": "False"
      }, 
      "inputs": [[245, 0, 0], [246, 0, 0], [247, 0, 0], [248, 0, 0], [249, 0, 0]]
    }, 
    {
      "op": "Activation", 
      "name": "stage3_unit3_relu1", 
      "attr": {"act_type": "relu"}, 
      "inputs": [[250, 0, 0]]
    }, 
    {
      "op": "null", 
      "name": "stage3_unit3_conv1_weight", 
      "inputs": []
    }, 
    {
      "op": "Convolution", 
      "name": "stage3_unit3_conv1", 
      "attr": {
        "cudnn_off": "False", 
        "dilate": "(1,1)", 
        "kernel": "(1,1)", 
        "no_bias": "True", 
        "num_filter": "256", 
        "num_group": "1", 
        "pad": "(0,0)", 
        "stride": "(1,1)", 
        "workspace": "512"
      }, 
      "inputs": [[251, 0, 0], [252, 0, 0]]
    }, 
    {
      "op": "null", 
      "name": "stage3_unit3_bn2_gamma", 
      "inputs": []
    }, 
    {
      "op": "null", 
      "name": "stage3_unit3_bn2_beta", 
      "inputs": []
    }, 
    {
      "op": "null", 
      "name": "stage3_unit3_bn2_moving_mean", 
      "attr": {
        "__init__": "[\"zero\", {}]", 
        "eps": "2e-05", 
        "fix_gamma": "False", 
        "momentum": "0.9", 
        "use_global_stats": "False"
      }, 
      "inputs": []
    }, 
    {
      "op": "null", 
      "name": "stage3_unit3_bn2_moving_var", 
      "attr": {
        "__init__": "[\"one\", {}]", 
        "eps": "2e-05", 
        "fix_gamma": "False", 
        "momentum": "0.9", 
        "use_global_stats": "False"
      }, 
      "inputs": []
    }, 
    {
      "op": "BatchNorm", 
      "name": "stage3_unit3_bn2", 
      "attr": {
        "eps": "2e-05", 
        "fix_gamma": "False", 
        "momentum": "0.9", 
        "use_global_stats": "False"
      }, 
      "inputs": [[253, 0, 0], [254, 0, 0], [255, 0, 0], [256, 0, 0], [257, 0, 0]]
    }, 
    {
      "op": "Activation", 
      "name": "stage3_unit3_relu2", 
      "attr": {"act_type": "relu"}, 
      "inputs": [[258, 0, 0]]
    }, 
    {
      "op": "null", 
      "name": "stage3_unit3_conv2_weight", 
      "inputs": []
    }, 
    {
      "op": "Convolution", 
      "name": "stage3_unit3_conv2", 
      "attr": {
        "cudnn_off": "False", 
        "dilate": "(1,1)", 
        "kernel": "(3,3)", 
        "no_bias": "True", 
        "num_filter": "256", 
        "num_group": "1", 
        "pad": "(1,1)", 
        "stride": "(1,1)", 
        "workspace": "512"
      }, 
      "inputs": [[259, 0, 0], [260, 0, 0]]
    }, 
    {
      "op": "null", 
      "name": "stage3_unit3_bn3_gamma", 
      "inputs": []
    }, 
    {
      "op": "null", 
      "name": "stage3_unit3_bn3_beta", 
      "inputs": []
    }, 
    {
      "op": "null", 
      "name": "stage3_unit3_bn3_moving_mean", 
      "attr": {
        "__init__": "[\"zero\", {}]", 
        "eps": "2e-05", 
        "fix_gamma": "False", 
        "momentum": "0.9", 
        "use_global_stats": "False"
      }, 
      "inputs": []
    }, 
    {
      "op": "null", 
      "name": "stage3_unit3_bn3_moving_var", 
      "attr": {
        "__init__": "[\"one\", {}]", 
        "eps": "2e-05", 
        "fix_gamma": "False", 
        "momentum": "0.9", 
        "use_global_stats": "False"
      }, 
      "inputs": []
    }, 
    {
      "op": "BatchNorm", 
      "name": "stage3_unit3_bn3", 
      "attr": {
        "eps": "2e-05", 
        "fix_gamma": "False", 
        "momentum": "0.9", 
        "use_global_stats": "False"
      }, 
      "inputs": [[261, 0, 0], [262, 0, 0], [263, 0, 0], [264, 0, 0], [265, 0, 0]]
    }, 
    {
      "op": "Activation", 
      "name": "stage3_unit3_relu3", 
      "attr": {"act_type": "relu"}, 
      "inputs": [[266, 0, 0]]
    }, 
    {
      "op": "null", 
      "name": "stage3_unit3_conv3_weight", 
      "inputs": []
    }, 
    {
      "op": "Convolution", 
      "name": "stage3_unit3_conv3", 
      "attr": {
        "cudnn_off": "False", 
        "dilate": "(1,1)", 
        "kernel": "(1,1)", 
        "no_bias": "True", 
        "num_filter": "1024", 
        "num_group": "1", 
        "pad": "(0,0)", 
        "stride": "(1,1)", 
        "workspace": "512"
      }, 
      "inputs": [[267, 0, 0], [268, 0, 0]]
    }, 
    {
      "op": "elemwise_add", 
      "name": "_plus9", 
      "inputs": [[269, 0, 0], [245, 0, 0]]
    }, 
    {
      "op": "null", 
      "name": "stage3_unit4_bn1_gamma", 
      "inputs": []
    }, 
    {
      "op": "null", 
      "name": "stage3_unit4_bn1_beta", 
      "inputs": []
    }, 
    {
      "op": "null", 
      "name": "stage3_unit4_bn1_moving_mean", 
      "attr": {
        "__init__": "[\"zero\", {}]", 
        "eps": "2e-05", 
        "fix_gamma": "False", 
        "momentum": "0.9", 
        "use_global_stats": "False"
      }, 
      "inputs": []
    }, 
    {
      "op": "null", 
      "name": "stage3_unit4_bn1_moving_var", 
      "attr": {
        "__init__": "[\"one\", {}]", 
        "eps": "2e-05", 
        "fix_gamma": "False", 
        "momentum": "0.9", 
        "use_global_stats": "False"
      }, 
      "inputs": []
    }, 
    {
      "op": "BatchNorm", 
      "name": "stage3_unit4_bn1", 
      "attr": {
        "eps": "2e-05", 
        "fix_gamma": "False", 
        "momentum": "0.9", 
        "use_global_stats": "False"
      }, 
      "inputs": [[270, 0, 0], [271, 0, 0], [272, 0, 0], [273, 0, 0], [274, 0, 0]]
    }, 
    {
      "op": "Activation", 
      "name": "stage3_unit4_relu1", 
      "attr": {"act_type": "relu"}, 
      "inputs": [[275, 0, 0]]
    }, 
    {
      "op": "null", 
      "name": "stage3_unit4_conv1_weight", 
      "inputs": []
    }, 
    {
      "op": "Convolution", 
      "name": "stage3_unit4_conv1", 
      "attr": {
        "cudnn_off": "False", 
        "dilate": "(1,1)", 
        "kernel": "(1,1)", 
        "no_bias": "True", 
        "num_filter": "256", 
        "num_group": "1", 
        "pad": "(0,0)", 
        "stride": "(1,1)", 
        "workspace": "512"
      }, 
      "inputs": [[276, 0, 0], [277, 0, 0]]
    }, 
    {
      "op": "null", 
      "name": "stage3_unit4_bn2_gamma", 
      "inputs": []
    }, 
    {
      "op": "null", 
      "name": "stage3_unit4_bn2_beta", 
      "inputs": []
    }, 
    {
      "op": "null", 
      "name": "stage3_unit4_bn2_moving_mean", 
      "attr": {
        "__init__": "[\"zero\", {}]", 
        "eps": "2e-05", 
        "fix_gamma": "False", 
        "momentum": "0.9", 
        "use_global_stats": "False"
      }, 
      "inputs": []
    }, 
    {
      "op": "null", 
      "name": "stage3_unit4_bn2_moving_var", 
      "attr": {
        "__init__": "[\"one\", {}]", 
        "eps": "2e-05", 
        "fix_gamma": "False", 
        "momentum": "0.9", 
        "use_global_stats": "False"
      }, 
      "inputs": []
    }, 
    {
      "op": "BatchNorm", 
      "name": "stage3_unit4_bn2", 
      "attr": {
        "eps": "2e-05", 
        "fix_gamma": "False", 
        "momentum": "0.9", 
        "use_global_stats": "False"
      }, 
      "inputs": [[278, 0, 0], [279, 0, 0], [280, 0, 0], [281, 0, 0], [282, 0, 0]]
    }, 
    {
      "op": "Activation", 
      "name": "stage3_unit4_relu2", 
      "attr": {"act_type": "relu"}, 
      "inputs": [[283, 0, 0]]
    }, 
    {
      "op": "null", 
      "name": "stage3_unit4_conv2_weight", 
      "inputs": []
    }, 
    {
      "op": "Convolution", 
      "name": "stage3_unit4_conv2", 
      "attr": {
        "cudnn_off": "False", 
        "dilate": "(1,1)", 
        "kernel": "(3,3)", 
        "no_bias": "True", 
        "num_filter": "256", 
        "num_group": "1", 
        "pad": "(1,1)", 
        "stride": "(1,1)", 
        "workspace": "512"
      }, 
      "inputs": [[284, 0, 0], [285, 0, 0]]
    }, 
    {
      "op": "null", 
      "name": "stage3_unit4_bn3_gamma", 
      "inputs": []
    }, 
    {
      "op": "null", 
      "name": "stage3_unit4_bn3_beta", 
      "inputs": []
    }, 
    {
      "op": "null", 
      "name": "stage3_unit4_bn3_moving_mean", 
      "attr": {
        "__init__": "[\"zero\", {}]", 
        "eps": "2e-05", 
        "fix_gamma": "False", 
        "momentum": "0.9", 
        "use_global_stats": "False"
      }, 
      "inputs": []
    }, 
    {
      "op": "null", 
      "name": "stage3_unit4_bn3_moving_var", 
      "attr": {
        "__init__": "[\"one\", {}]", 
        "eps": "2e-05", 
        "fix_gamma": "False", 
        "momentum": "0.9", 
        "use_global_stats": "False"
      }, 
      "inputs": []
    }, 
    {
      "op": "BatchNorm", 
      "name": "stage3_unit4_bn3", 
      "attr": {
        "eps": "2e-05", 
        "fix_gamma": "False", 
        "momentum": "0.9", 
        "use_global_stats": "False"
      }, 
      "inputs": [[286, 0, 0], [287, 0, 0], [288, 0, 0], [289, 0, 0], [290, 0, 0]]
    }, 
    {
      "op": "Activation", 
      "name": "stage3_unit4_relu3", 
      "attr": {"act_type": "relu"}, 
      "inputs": [[291, 0, 0]]
    }, 
    {
      "op": "null", 
      "name": "stage3_unit4_conv3_weight", 
      "inputs": []
    }, 
    {
      "op": "Convolution", 
      "name": "stage3_unit4_conv3", 
      "attr": {
        "cudnn_off": "False", 
        "dilate": "(1,1)", 
        "kernel": "(1,1)", 
        "no_bias": "True", 
        "num_filter": "1024", 
        "num_group": "1", 
        "pad": "(0,0)", 
        "stride": "(1,1)", 
        "workspace": "512"
      }, 
      "inputs": [[292, 0, 0], [293, 0, 0]]
    }, 
    {
      "op": "elemwise_add", 
      "name": "_plus10", 
      "inputs": [[294, 0, 0], [270, 0, 0]]
    }, 
    {
      "op": "null", 
      "name": "stage3_unit5_bn1_gamma", 
      "inputs": []
    }, 
    {
      "op": "null", 
      "name": "stage3_unit5_bn1_beta", 
      "inputs": []
    }, 
    {
      "op": "null", 
      "name": "stage3_unit5_bn1_moving_mean", 
      "attr": {
        "__init__": "[\"zero\", {}]", 
        "eps": "2e-05", 
        "fix_gamma": "False", 
        "momentum": "0.9", 
        "use_global_stats": "False"
      }, 
      "inputs": []
    }, 
    {
      "op": "null", 
      "name": "stage3_unit5_bn1_moving_var", 
      "attr": {
        "__init__": "[\"one\", {}]", 
        "eps": "2e-05", 
        "fix_gamma": "False", 
        "momentum": "0.9", 
        "use_global_stats": "False"
      }, 
      "inputs": []
    }, 
    {
      "op": "BatchNorm", 
      "name": "stage3_unit5_bn1", 
      "attr": {
        "eps": "2e-05", 
        "fix_gamma": "False", 
        "momentum": "0.9", 
        "use_global_stats": "False"
      }, 
      "inputs": [[295, 0, 0], [296, 0, 0], [297, 0, 0], [298, 0, 0], [299, 0, 0]]
    }, 
    {
      "op": "Activation", 
      "name": "stage3_unit5_relu1", 
      "attr": {"act_type": "relu"}, 
      "inputs": [[300, 0, 0]]
    }, 
    {
      "op": "null", 
      "name": "stage3_unit5_conv1_weight", 
      "inputs": []
    }, 
    {
      "op": "Convolution", 
      "name": "stage3_unit5_conv1", 
      "attr": {
        "cudnn_off": "False", 
        "dilate": "(1,1)", 
        "kernel": "(1,1)", 
        "no_bias": "True", 
        "num_filter": "256", 
        "num_group": "1", 
        "pad": "(0,0)", 
        "stride": "(1,1)", 
        "workspace": "512"
      }, 
      "inputs": [[301, 0, 0], [302, 0, 0]]
    }, 
    {
      "op": "null", 
      "name": "stage3_unit5_bn2_gamma", 
      "inputs": []
    }, 
    {
      "op": "null", 
      "name": "stage3_unit5_bn2_beta", 
      "inputs": []
    }, 
    {
      "op": "null", 
      "name": "stage3_unit5_bn2_moving_mean", 
      "attr": {
        "__init__": "[\"zero\", {}]", 
        "eps": "2e-05", 
        "fix_gamma": "False", 
        "momentum": "0.9", 
        "use_global_stats": "False"
      }, 
      "inputs": []
    }, 
    {
      "op": "null", 
      "name": "stage3_unit5_bn2_moving_var", 
      "attr": {
        "__init__": "[\"one\", {}]", 
        "eps": "2e-05", 
        "fix_gamma": "False", 
        "momentum": "0.9", 
        "use_global_stats": "False"
      }, 
      "inputs": []
    }, 
    {
      "op": "BatchNorm", 
      "name": "stage3_unit5_bn2", 
      "attr": {
        "eps": "2e-05", 
        "fix_gamma": "False", 
        "momentum": "0.9", 
        "use_global_stats": "False"
      }, 
      "inputs": [[303, 0, 0], [304, 0, 0], [305, 0, 0], [306, 0, 0], [307, 0, 0]]
    }, 
    {
      "op": "Activation", 
      "name": "stage3_unit5_relu2", 
      "attr": {"act_type": "relu"}, 
      "inputs": [[308, 0, 0]]
    }, 
    {
      "op": "null", 
      "name": "stage3_unit5_conv2_weight", 
      "inputs": []
    }, 
    {
      "op": "Convolution", 
      "name": "stage3_unit5_conv2", 
      "attr": {
        "cudnn_off": "False", 
        "dilate": "(1,1)", 
        "kernel": "(3,3)", 
        "no_bias": "True", 
        "num_filter": "256", 
        "num_group": "1", 
        "pad": "(1,1)", 
        "stride": "(1,1)", 
        "workspace": "512"
      }, 
      "inputs": [[309, 0, 0], [310, 0, 0]]
    }, 
    {
      "op": "null", 
      "name": "stage3_unit5_bn3_gamma", 
      "inputs": []
    }, 
    {
      "op": "null", 
      "name": "stage3_unit5_bn3_beta", 
      "inputs": []
    }, 
    {
      "op": "null", 
      "name": "stage3_unit5_bn3_moving_mean", 
      "attr": {
        "__init__": "[\"zero\", {}]", 
        "eps": "2e-05", 
        "fix_gamma": "False", 
        "momentum": "0.9", 
        "use_global_stats": "False"
      }, 
      "inputs": []
    }, 
    {
      "op": "null", 
      "name": "stage3_unit5_bn3_moving_var", 
      "attr": {
        "__init__": "[\"one\", {}]", 
        "eps": "2e-05", 
        "fix_gamma": "False", 
        "momentum": "0.9", 
        "use_global_stats": "False"
      }, 
      "inputs": []
    }, 
    {
      "op": "BatchNorm", 
      "name": "stage3_unit5_bn3", 
      "attr": {
        "eps": "2e-05", 
        "fix_gamma": "False", 
        "momentum": "0.9", 
        "use_global_stats": "False"
      }, 
      "inputs": [[311, 0, 0], [312, 0, 0], [313, 0, 0], [314, 0, 0], [315, 0, 0]]
    }, 
    {
      "op": "Activation", 
      "name": "stage3_unit5_relu3", 
      "attr": {"act_type": "relu"}, 
      "inputs": [[316, 0, 0]]
    }, 
    {
      "op": "null", 
      "name": "stage3_unit5_conv3_weight", 
      "inputs": []
    }, 
    {
      "op": "Convolution", 
      "name": "stage3_unit5_conv3", 
      "attr": {
        "cudnn_off": "False", 
        "dilate": "(1,1)", 
        "kernel": "(1,1)", 
        "no_bias": "True", 
        "num_filter": "1024", 
        "num_group": "1", 
        "pad": "(0,0)", 
        "stride": "(1,1)", 
        "workspace": "512"
      }, 
      "inputs": [[317, 0, 0], [318, 0, 0]]
    }, 
    {
      "op": "elemwise_add", 
      "name": "_plus11", 
      "inputs": [[319, 0, 0], [295, 0, 0]]
    }, 
    {
      "op": "null", 
      "name": "stage3_unit6_bn1_gamma", 
      "inputs": []
    }, 
    {
      "op": "null", 
      "name": "stage3_unit6_bn1_beta", 
      "inputs": []
    }, 
    {
      "op": "null", 
      "name": "stage3_unit6_bn1_moving_mean", 
      "attr": {
        "__init__": "[\"zero\", {}]", 
        "eps": "2e-05", 
        "fix_gamma": "False", 
        "momentum": "0.9", 
        "use_global_stats": "False"
      }, 
      "inputs": []
    }, 
    {
      "op": "null", 
      "name": "stage3_unit6_bn1_moving_var", 
      "attr": {
        "__init__": "[\"one\", {}]", 
        "eps": "2e-05", 
        "fix_gamma": "False", 
        "momentum": "0.9", 
        "use_global_stats": "False"
      }, 
      "inputs": []
    }, 
    {
      "op": "BatchNorm", 
      "name": "stage3_unit6_bn1", 
      "attr": {
        "eps": "2e-05", 
        "fix_gamma": "False", 
        "momentum": "0.9", 
        "use_global_stats": "False"
      }, 
      "inputs": [[320, 0, 0], [321, 0, 0], [322, 0, 0], [323, 0, 0], [324, 0, 0]]
    }, 
    {
      "op": "Activation", 
      "name": "stage3_unit6_relu1", 
      "attr": {"act_type": "relu"}, 
      "inputs": [[325, 0, 0]]
    }, 
    {
      "op": "null", 
      "name": "stage3_unit6_conv1_weight", 
      "inputs": []
    }, 
    {
      "op": "Convolution", 
      "name": "stage3_unit6_conv1", 
      "attr": {
        "cudnn_off": "False", 
        "dilate": "(1,1)", 
        "kernel": "(1,1)", 
        "no_bias": "True", 
        "num_filter": "256", 
        "num_group": "1", 
        "pad": "(0,0)", 
        "stride": "(1,1)", 
        "workspace": "512"
      }, 
      "inputs": [[326, 0, 0], [327, 0, 0]]
    }, 
    {
      "op": "null", 
      "name": "stage3_unit6_bn2_gamma", 
      "inputs": []
    }, 
    {
      "op": "null", 
      "name": "stage3_unit6_bn2_beta", 
      "inputs": []
    }, 
    {
      "op": "null", 
      "name": "stage3_unit6_bn2_moving_mean", 
      "attr": {
        "__init__": "[\"zero\", {}]", 
        "eps": "2e-05", 
        "fix_gamma": "False", 
        "momentum": "0.9", 
        "use_global_stats": "False"
      }, 
      "inputs": []
    }, 
    {
      "op": "null", 
      "name": "stage3_unit6_bn2_moving_var", 
      "attr": {
        "__init__": "[\"one\", {}]", 
        "eps": "2e-05", 
        "fix_gamma": "False", 
        "momentum": "0.9", 
        "use_global_stats": "False"
      }, 
      "inputs": []
    }, 
    {
      "op": "BatchNorm", 
      "name": "stage3_unit6_bn2", 
      "attr": {
        "eps": "2e-05", 
        "fix_gamma": "False", 
        "momentum": "0.9", 
        "use_global_stats": "False"
      }, 
      "inputs": [[328, 0, 0], [329, 0, 0], [330, 0, 0], [331, 0, 0], [332, 0, 0]]
    }, 
    {
      "op": "Activation", 
      "name": "stage3_unit6_relu2", 
      "attr": {"act_type": "relu"}, 
      "inputs": [[333, 0, 0]]
    }, 
    {
      "op": "null", 
      "name": "stage3_unit6_conv2_weight", 
      "inputs": []
    }, 
    {
      "op": "Convolution", 
      "name": "stage3_unit6_conv2", 
      "attr": {
        "cudnn_off": "False", 
        "dilate": "(1,1)", 
        "kernel": "(3,3)", 
        "no_bias": "True", 
        "num_filter": "256", 
        "num_group": "1", 
        "pad": "(1,1)", 
        "stride": "(1,1)", 
        "workspace": "512"
      }, 
      "inputs": [[334, 0, 0], [335, 0, 0]]
    }, 
    {
      "op": "null", 
      "name": "stage3_unit6_bn3_gamma", 
      "inputs": []
    }, 
    {
      "op": "null", 
      "name": "stage3_unit6_bn3_beta", 
      "inputs": []
    }, 
    {
      "op": "null", 
      "name": "stage3_unit6_bn3_moving_mean", 
      "attr": {
        "__init__": "[\"zero\", {}]", 
        "eps": "2e-05", 
        "fix_gamma": "False", 
        "momentum": "0.9", 
        "use_global_stats": "False"
      }, 
      "inputs": []
    }, 
    {
      "op": "null", 
      "name": "stage3_unit6_bn3_moving_var", 
      "attr": {
        "__init__": "[\"one\", {}]", 
        "eps": "2e-05", 
        "fix_gamma": "False", 
        "momentum": "0.9", 
        "use_global_stats": "False"
      }, 
      "inputs": []
    }, 
    {
      "op": "BatchNorm", 
      "name": "stage3_unit6_bn3", 
      "attr": {
        "eps": "2e-05", 
        "fix_gamma": "False", 
        "momentum": "0.9", 
        "use_global_stats": "False"
      }, 
      "inputs": [[336, 0, 0], [337, 0, 0], [338, 0, 0], [339, 0, 0], [340, 0, 0]]
    }, 
    {
      "op": "Activation", 
      "name": "stage3_unit6_relu3", 
      "attr": {"act_type": "relu"}, 
      "inputs": [[341, 0, 0]]
    }, 
    {
      "op": "null", 
      "name": "stage3_unit6_conv3_weight", 
      "inputs": []
    }, 
    {
      "op": "Convolution", 
      "name": "stage3_unit6_conv3", 
      "attr": {
        "cudnn_off": "False", 
        "dilate": "(1,1)", 
        "kernel": "(1,1)", 
        "no_bias": "True", 
        "num_filter": "1024", 
        "num_group": "1", 
        "pad": "(0,0)", 
        "stride": "(1,1)", 
        "workspace": "512"
      }, 
      "inputs": [[342, 0, 0], [343, 0, 0]]
    }, 
    {
      "op": "elemwise_add", 
      "name": "_plus12", 
      "inputs": [[344, 0, 0], [320, 0, 0]]
    }, 
    {
      "op": "null", 
      "name": "stage3_unit7_bn1_gamma", 
      "inputs": []
    }, 
    {
      "op": "null", 
      "name": "stage3_unit7_bn1_beta", 
      "inputs": []
    }, 
    {
      "op": "null", 
      "name": "stage3_unit7_bn1_moving_mean", 
      "attr": {
        "__init__": "[\"zero\", {}]", 
        "eps": "2e-05", 
        "fix_gamma": "False", 
        "momentum": "0.9", 
        "use_global_stats": "False"
      }, 
      "inputs": []
    }, 
    {
      "op": "null", 
      "name": "stage3_unit7_bn1_moving_var", 
      "attr": {
        "__init__": "[\"one\", {}]", 
        "eps": "2e-05", 
        "fix_gamma": "False", 
        "momentum": "0.9", 
        "use_global_stats": "False"
      }, 
      "inputs": []
    }, 
    {
      "op": "BatchNorm", 
      "name": "stage3_unit7_bn1", 
      "attr": {
        "eps": "2e-05", 
        "fix_gamma": "False", 
        "momentum": "0.9", 
        "use_global_stats": "False"
      }, 
      "inputs": [[345, 0, 0], [346, 0, 0], [347, 0, 0], [348, 0, 0], [349, 0, 0]]
    }, 
    {
      "op": "Activation", 
      "name": "stage3_unit7_relu1", 
      "attr": {"act_type": "relu"}, 
      "inputs": [[350, 0, 0]]
    }, 
    {
      "op": "null", 
      "name": "stage3_unit7_conv1_weight", 
      "inputs": []
    }, 
    {
      "op": "Convolution", 
      "name": "stage3_unit7_conv1", 
      "attr": {
        "cudnn_off": "False", 
        "dilate": "(1,1)", 
        "kernel": "(1,1)", 
        "no_bias": "True", 
        "num_filter": "256", 
        "num_group": "1", 
        "pad": "(0,0)", 
        "stride": "(1,1)", 
        "workspace": "512"
      }, 
      "inputs": [[351, 0, 0], [352, 0, 0]]
    }, 
    {
      "op": "null", 
      "name": "stage3_unit7_bn2_gamma", 
      "inputs": []
    }, 
    {
      "op": "null", 
      "name": "stage3_unit7_bn2_beta", 
      "inputs": []
    }, 
    {
      "op": "null", 
      "name": "stage3_unit7_bn2_moving_mean", 
      "attr": {
        "__init__": "[\"zero\", {}]", 
        "eps": "2e-05", 
        "fix_gamma": "False", 
        "momentum": "0.9", 
        "use_global_stats": "False"
      }, 
      "inputs": []
    }, 
    {
      "op": "null", 
      "name": "stage3_unit7_bn2_moving_var", 
      "attr": {
        "__init__": "[\"one\", {}]", 
        "eps": "2e-05", 
        "fix_gamma": "False", 
        "momentum": "0.9", 
        "use_global_stats": "False"
      }, 
      "inputs": []
    }, 
    {
      "op": "BatchNorm", 
      "name": "stage3_unit7_bn2", 
      "attr": {
        "eps": "2e-05", 
        "fix_gamma": "False", 
        "momentum": "0.9", 
        "use_global_stats": "False"
      }, 
      "inputs": [[353, 0, 0], [354, 0, 0], [355, 0, 0], [356, 0, 0], [357, 0, 0]]
    }, 
    {
      "op": "Activation", 
      "name": "stage3_unit7_relu2", 
      "attr": {"act_type": "relu"}, 
      "inputs": [[358, 0, 0]]
    }, 
    {
      "op": "null", 
      "name": "stage3_unit7_conv2_weight", 
      "inputs": []
    }, 
    {
      "op": "Convolution", 
      "name": "stage3_unit7_conv2", 
      "attr": {
        "cudnn_off": "False", 
        "dilate": "(1,1)", 
        "kernel": "(3,3)", 
        "no_bias": "True", 
        "num_filter": "256", 
        "num_group": "1", 
        "pad": "(1,1)", 
        "stride": "(1,1)", 
        "workspace": "512"
      }, 
      "inputs": [[359, 0, 0], [360, 0, 0]]
    }, 
    {
      "op": "null", 
      "name": "stage3_unit7_bn3_gamma", 
      "inputs": []
    }, 
    {
      "op": "null", 
      "name": "stage3_unit7_bn3_beta", 
      "inputs": []
    }, 
    {
      "op": "null", 
      "name": "stage3_unit7_bn3_moving_mean", 
      "attr": {
        "__init__": "[\"zero\", {}]", 
        "eps": "2e-05", 
        "fix_gamma": "False", 
        "momentum": "0.9", 
        "use_global_stats": "False"
      }, 
      "inputs": []
    }, 
    {
      "op": "null", 
      "name": "stage3_unit7_bn3_moving_var", 
      "attr": {
        "__init__": "[\"one\", {}]", 
        "eps": "2e-05", 
        "fix_gamma": "False", 
        "momentum": "0.9", 
        "use_global_stats": "False"
      }, 
      "inputs": []
    }, 
    {
      "op": "BatchNorm", 
      "name": "stage3_unit7_bn3", 
      "attr": {
        "eps": "2e-05", 
        "fix_gamma": "False", 
        "momentum": "0.9", 
        "use_global_stats": "False"
      }, 
      "inputs": [[361, 0, 0], [362, 0, 0], [363, 0, 0], [364, 0, 0], [365, 0, 0]]
    }, 
    {
      "op": "Activation", 
      "name": "stage3_unit7_relu3", 
      "attr": {"act_type": "relu"}, 
      "inputs": [[366, 0, 0]]
    }, 
    {
      "op": "null", 
      "name": "stage3_unit7_conv3_weight", 
      "inputs": []
    }, 
    {
      "op": "Convolution", 
      "name": "stage3_unit7_conv3", 
      "attr": {
        "cudnn_off": "False", 
        "dilate": "(1,1)", 
        "kernel": "(1,1)", 
        "no_bias": "True", 
        "num_filter": "1024", 
        "num_group": "1", 
        "pad": "(0,0)", 
        "stride": "(1,1)", 
        "workspace": "512"
      }, 
      "inputs": [[367, 0, 0], [368, 0, 0]]
    }, 
    {
      "op": "elemwise_add", 
      "name": "_plus13", 
      "inputs": [[369, 0, 0], [345, 0, 0]]
    }, 
    {
      "op": "null", 
      "name": "stage3_unit8_bn1_gamma", 
      "inputs": []
    }, 
    {
      "op": "null", 
      "name": "stage3_unit8_bn1_beta", 
      "inputs": []
    }, 
    {
      "op": "null", 
      "name": "stage3_unit8_bn1_moving_mean", 
      "attr": {
        "__init__": "[\"zero\", {}]", 
        "eps": "2e-05", 
        "fix_gamma": "False", 
        "momentum": "0.9", 
        "use_global_stats": "False"
      }, 
      "inputs": []
    }, 
    {
      "op": "null", 
      "name": "stage3_unit8_bn1_moving_var", 
      "attr": {
        "__init__": "[\"one\", {}]", 
        "eps": "2e-05", 
        "fix_gamma": "False", 
        "momentum": "0.9", 
        "use_global_stats": "False"
      }, 
      "inputs": []
    }, 
    {
      "op": "BatchNorm", 
      "name": "stage3_unit8_bn1", 
      "attr": {
        "eps": "2e-05", 
        "fix_gamma": "False", 
        "momentum": "0.9", 
        "use_global_stats": "False"
      }, 
      "inputs": [[370, 0, 0], [371, 0, 0], [372, 0, 0], [373, 0, 0], [374, 0, 0]]
    }, 
    {
      "op": "Activation", 
      "name": "stage3_unit8_relu1", 
      "attr": {"act_type": "relu"}, 
      "inputs": [[375, 0, 0]]
    }, 
    {
      "op": "null", 
      "name": "stage3_unit8_conv1_weight", 
      "inputs": []
    }, 
    {
      "op": "Convolution", 
      "name": "stage3_unit8_conv1", 
      "attr": {
        "cudnn_off": "False", 
        "dilate": "(1,1)", 
        "kernel": "(1,1)", 
        "no_bias": "True", 
        "num_filter": "256", 
        "num_group": "1", 
        "pad": "(0,0)", 
        "stride": "(1,1)", 
        "workspace": "512"
      }, 
      "inputs": [[376, 0, 0], [377, 0, 0]]
    }, 
    {
      "op": "null", 
      "name": "stage3_unit8_bn2_gamma", 
      "inputs": []
    }, 
    {
      "op": "null", 
      "name": "stage3_unit8_bn2_beta", 
      "inputs": []
    }, 
    {
      "op": "null", 
      "name": "stage3_unit8_bn2_moving_mean", 
      "attr": {
        "__init__": "[\"zero\", {}]", 
        "eps": "2e-05", 
        "fix_gamma": "False", 
        "momentum": "0.9", 
        "use_global_stats": "False"
      }, 
      "inputs": []
    }, 
    {
      "op": "null", 
      "name": "stage3_unit8_bn2_moving_var", 
      "attr": {
        "__init__": "[\"one\", {}]", 
        "eps": "2e-05", 
        "fix_gamma": "False", 
        "momentum": "0.9", 
        "use_global_stats": "False"
      }, 
      "inputs": []
    }, 
    {
      "op": "BatchNorm", 
      "name": "stage3_unit8_bn2", 
      "attr": {
        "eps": "2e-05", 
        "fix_gamma": "False", 
        "momentum": "0.9", 
        "use_global_stats": "False"
      }, 
      "inputs": [[378, 0, 0], [379, 0, 0], [380, 0, 0], [381, 0, 0], [382, 0, 0]]
    }, 
    {
      "op": "Activation", 
      "name": "stage3_unit8_relu2", 
      "attr": {"act_type": "relu"}, 
      "inputs": [[383, 0, 0]]
    }, 
    {
      "op": "null", 
      "name": "stage3_unit8_conv2_weight", 
      "inputs": []
    }, 
    {
      "op": "Convolution", 
      "name": "stage3_unit8_conv2", 
      "attr": {
        "cudnn_off": "False", 
        "dilate": "(1,1)", 
        "kernel": "(3,3)", 
        "no_bias": "True", 
        "num_filter": "256", 
        "num_group": "1", 
        "pad": "(1,1)", 
        "stride": "(1,1)", 
        "workspace": "512"
      }, 
      "inputs": [[384, 0, 0], [385, 0, 0]]
    }, 
    {
      "op": "null", 
      "name": "stage3_unit8_bn3_gamma", 
      "inputs": []
    }, 
    {
      "op": "null", 
      "name": "stage3_unit8_bn3_beta", 
      "inputs": []
    }, 
    {
      "op": "null", 
      "name": "stage3_unit8_bn3_moving_mean", 
      "attr": {
        "__init__": "[\"zero\", {}]", 
        "eps": "2e-05", 
        "fix_gamma": "False", 
        "momentum": "0.9", 
        "use_global_stats": "False"
      }, 
      "inputs": []
    }, 
    {
      "op": "null", 
      "name": "stage3_unit8_bn3_moving_var", 
      "attr": {
        "__init__": "[\"one\", {}]", 
        "eps": "2e-05", 
        "fix_gamma": "False", 
        "momentum": "0.9", 
        "use_global_stats": "False"
      }, 
      "inputs": []
    }, 
    {
      "op": "BatchNorm", 
      "name": "stage3_unit8_bn3", 
      "attr": {
        "eps": "2e-05", 
        "fix_gamma": "False", 
        "momentum": "0.9", 
        "use_global_stats": "False"
      }, 
      "inputs": [[386, 0, 0], [387, 0, 0], [388, 0, 0], [389, 0, 0], [390, 0, 0]]
    }, 
    {
      "op": "Activation", 
      "name": "stage3_unit8_relu3", 
      "attr": {"act_type": "relu"}, 
      "inputs": [[391, 0, 0]]
    }, 
    {
      "op": "null", 
      "name": "stage3_unit8_conv3_weight", 
      "inputs": []
    }, 
    {
      "op": "Convolution", 
      "name": "stage3_unit8_conv3", 
      "attr": {
        "cudnn_off": "False", 
        "dilate": "(1,1)", 
        "kernel": "(1,1)", 
        "no_bias": "True", 
        "num_filter": "1024", 
        "num_group": "1", 
        "pad": "(0,0)", 
        "stride": "(1,1)", 
        "workspace": "512"
      }, 
      "inputs": [[392, 0, 0], [393, 0, 0]]
    }, 
    {
      "op": "elemwise_add", 
      "name": "_plus14", 
      "inputs": [[394, 0, 0], [370, 0, 0]]
    }, 
    {
      "op": "null", 
      "name": "stage3_unit9_bn1_gamma", 
      "inputs": []
    }, 
    {
      "op": "null", 
      "name": "stage3_unit9_bn1_beta", 
      "inputs": []
    }, 
    {
      "op": "null", 
      "name": "stage3_unit9_bn1_moving_mean", 
      "attr": {
        "__init__": "[\"zero\", {}]", 
        "eps": "2e-05", 
        "fix_gamma": "False", 
        "momentum": "0.9", 
        "use_global_stats": "False"
      }, 
      "inputs": []
    }, 
    {
      "op": "null", 
      "name": "stage3_unit9_bn1_moving_var", 
      "attr": {
        "__init__": "[\"one\", {}]", 
        "eps": "2e-05", 
        "fix_gamma": "False", 
        "momentum": "0.9", 
        "use_global_stats": "False"
      }, 
      "inputs": []
    }, 
    {
      "op": "BatchNorm", 
      "name": "stage3_unit9_bn1", 
      "attr": {
        "eps": "2e-05", 
        "fix_gamma": "False", 
        "momentum": "0.9", 
        "use_global_stats": "False"
      }, 
      "inputs": [[395, 0, 0], [396, 0, 0], [397, 0, 0], [398, 0, 0], [399, 0, 0]]
    }, 
    {
      "op": "Activation", 
      "name": "stage3_unit9_relu1", 
      "attr": {"act_type": "relu"}, 
      "inputs": [[400, 0, 0]]
    }, 
    {
      "op": "null", 
      "name": "stage3_unit9_conv1_weight", 
      "inputs": []
    }, 
    {
      "op": "Convolution", 
      "name": "stage3_unit9_conv1", 
      "attr": {
        "cudnn_off": "False", 
        "dilate": "(1,1)", 
        "kernel": "(1,1)", 
        "no_bias": "True", 
        "num_filter": "256", 
        "num_group": "1", 
        "pad": "(0,0)", 
        "stride": "(1,1)", 
        "workspace": "512"
      }, 
      "inputs": [[401, 0, 0], [402, 0, 0]]
    }, 
    {
      "op": "null", 
      "name": "stage3_unit9_bn2_gamma", 
      "inputs": []
    }, 
    {
      "op": "null", 
      "name": "stage3_unit9_bn2_beta", 
      "inputs": []
    }, 
    {
      "op": "null", 
      "name": "stage3_unit9_bn2_moving_mean", 
      "attr": {
        "__init__": "[\"zero\", {}]", 
        "eps": "2e-05", 
        "fix_gamma": "False", 
        "momentum": "0.9", 
        "use_global_stats": "False"
      }, 
      "inputs": []
    }, 
    {
      "op": "null", 
      "name": "stage3_unit9_bn2_moving_var", 
      "attr": {
        "__init__": "[\"one\", {}]", 
        "eps": "2e-05", 
        "fix_gamma": "False", 
        "momentum": "0.9", 
        "use_global_stats": "False"
      }, 
      "inputs": []
    }, 
    {
      "op": "BatchNorm", 
      "name": "stage3_unit9_bn2", 
      "attr": {
        "eps": "2e-05", 
        "fix_gamma": "False", 
        "momentum": "0.9", 
        "use_global_stats": "False"
      }, 
      "inputs": [[403, 0, 0], [404, 0, 0], [405, 0, 0], [406, 0, 0], [407, 0, 0]]
    }, 
    {
      "op": "Activation", 
      "name": "stage3_unit9_relu2", 
      "attr": {"act_type": "relu"}, 
      "inputs": [[408, 0, 0]]
    }, 
    {
      "op": "null", 
      "name": "stage3_unit9_conv2_weight", 
      "inputs": []
    }, 
    {
      "op": "Convolution", 
      "name": "stage3_unit9_conv2", 
      "attr": {
        "cudnn_off": "False", 
        "dilate": "(1,1)", 
        "kernel": "(3,3)", 
        "no_bias": "True", 
        "num_filter": "256", 
        "num_group": "1", 
        "pad": "(1,1)", 
        "stride": "(1,1)", 
        "workspace": "512"
      }, 
      "inputs": [[409, 0, 0], [410, 0, 0]]
    }, 
    {
      "op": "null", 
      "name": "stage3_unit9_bn3_gamma", 
      "inputs": []
    }, 
    {
      "op": "null", 
      "name": "stage3_unit9_bn3_beta", 
      "inputs": []
    }, 
    {
      "op": "null", 
      "name": "stage3_unit9_bn3_moving_mean", 
      "attr": {
        "__init__": "[\"zero\", {}]", 
        "eps": "2e-05", 
        "fix_gamma": "False", 
        "momentum": "0.9", 
        "use_global_stats": "False"
      }, 
      "inputs": []
    }, 
    {
      "op": "null", 
      "name": "stage3_unit9_bn3_moving_var", 
      "attr": {
        "__init__": "[\"one\", {}]", 
        "eps": "2e-05", 
        "fix_gamma": "False", 
        "momentum": "0.9", 
        "use_global_stats": "False"
      }, 
      "inputs": []
    }, 
    {
      "op": "BatchNorm", 
      "name": "stage3_unit9_bn3", 
      "attr": {
        "eps": "2e-05", 
        "fix_gamma": "False", 
        "momentum": "0.9", 
        "use_global_stats": "False"
      }, 
      "inputs": [[411, 0, 0], [412, 0, 0], [413, 0, 0], [414, 0, 0], [415, 0, 0]]
    }, 
    {
      "op": "Activation", 
      "name": "stage3_unit9_relu3", 
      "attr": {"act_type": "relu"}, 
      "inputs": [[416, 0, 0]]
    }, 
    {
      "op": "null", 
      "name": "stage3_unit9_conv3_weight", 
      "inputs": []
    }, 
    {
      "op": "Convolution", 
      "name": "stage3_unit9_conv3", 
      "attr": {
        "cudnn_off": "False", 
        "dilate": "(1,1)", 
        "kernel": "(1,1)", 
        "no_bias": "True", 
        "num_filter": "1024", 
        "num_group": "1", 
        "pad": "(0,0)", 
        "stride": "(1,1)", 
        "workspace": "512"
      }, 
      "inputs": [[417, 0, 0], [418, 0, 0]]
    }, 
    {
      "op": "elemwise_add", 
      "name": "_plus15", 
      "inputs": [[419, 0, 0], [395, 0, 0]]
    }, 
    {
      "op": "null", 
      "name": "stage3_unit10_bn1_gamma", 
      "inputs": []
    }, 
    {
      "op": "null", 
      "name": "stage3_unit10_bn1_beta", 
      "inputs": []
    }, 
    {
      "op": "null", 
      "name": "stage3_unit10_bn1_moving_mean", 
      "attr": {
        "__init__": "[\"zero\", {}]", 
        "eps": "2e-05", 
        "fix_gamma": "False", 
        "momentum": "0.9", 
        "use_global_stats": "False"
      }, 
      "inputs": []
    }, 
    {
      "op": "null", 
      "name": "stage3_unit10_bn1_moving_var", 
      "attr": {
        "__init__": "[\"one\", {}]", 
        "eps": "2e-05", 
        "fix_gamma": "False", 
        "momentum": "0.9", 
        "use_global_stats": "False"
      }, 
      "inputs": []
    }, 
    {
      "op": "BatchNorm", 
      "name": "stage3_unit10_bn1", 
      "attr": {
        "eps": "2e-05", 
        "fix_gamma": "False", 
        "momentum": "0.9", 
        "use_global_stats": "False"
      }, 
      "inputs": [[420, 0, 0], [421, 0, 0], [422, 0, 0], [423, 0, 0], [424, 0, 0]]
    }, 
    {
      "op": "Activation", 
      "name": "stage3_unit10_relu1", 
      "attr": {"act_type": "relu"}, 
      "inputs": [[425, 0, 0]]
    }, 
    {
      "op": "null", 
      "name": "stage3_unit10_conv1_weight", 
      "inputs": []
    }, 
    {
      "op": "Convolution", 
      "name": "stage3_unit10_conv1", 
      "attr": {
        "cudnn_off": "False", 
        "dilate": "(1,1)", 
        "kernel": "(1,1)", 
        "no_bias": "True", 
        "num_filter": "256", 
        "num_group": "1", 
        "pad": "(0,0)", 
        "stride": "(1,1)", 
        "workspace": "512"
      }, 
      "inputs": [[426, 0, 0], [427, 0, 0]]
    }, 
    {
      "op": "null", 
      "name": "stage3_unit10_bn2_gamma", 
      "inputs": []
    }, 
    {
      "op": "null", 
      "name": "stage3_unit10_bn2_beta", 
      "inputs": []
    }, 
    {
      "op": "null", 
      "name": "stage3_unit10_bn2_moving_mean", 
      "attr": {
        "__init__": "[\"zero\", {}]", 
        "eps": "2e-05", 
        "fix_gamma": "False", 
        "momentum": "0.9", 
        "use_global_stats": "False"
      }, 
      "inputs": []
    }, 
    {
      "op": "null", 
      "name": "stage3_unit10_bn2_moving_var", 
      "attr": {
        "__init__": "[\"one\", {}]", 
        "eps": "2e-05", 
        "fix_gamma": "False", 
        "momentum": "0.9", 
        "use_global_stats": "False"
      }, 
      "inputs": []
    }, 
    {
      "op": "BatchNorm", 
      "name": "stage3_unit10_bn2", 
      "attr": {
        "eps": "2e-05", 
        "fix_gamma": "False", 
        "momentum": "0.9", 
        "use_global_stats": "False"
      }, 
      "inputs": [[428, 0, 0], [429, 0, 0], [430, 0, 0], [431, 0, 0], [432, 0, 0]]
    }, 
    {
      "op": "Activation", 
      "name": "stage3_unit10_relu2", 
      "attr": {"act_type": "relu"}, 
      "inputs": [[433, 0, 0]]
    }, 
    {
      "op": "null", 
      "name": "stage3_unit10_conv2_weight", 
      "inputs": []
    }, 
    {
      "op": "Convolution", 
      "name": "stage3_unit10_conv2", 
      "attr": {
        "cudnn_off": "False", 
        "dilate": "(1,1)", 
        "kernel": "(3,3)", 
        "no_bias": "True", 
        "num_filter": "256", 
        "num_group": "1", 
        "pad": "(1,1)", 
        "stride": "(1,1)", 
        "workspace": "512"
      }, 
      "inputs": [[434, 0, 0], [435, 0, 0]]
    }, 
    {
      "op": "null", 
      "name": "stage3_unit10_bn3_gamma", 
      "inputs": []
    }, 
    {
      "op": "null", 
      "name": "stage3_unit10_bn3_beta", 
      "inputs": []
    }, 
    {
      "op": "null", 
      "name": "stage3_unit10_bn3_moving_mean", 
      "attr": {
        "__init__": "[\"zero\", {}]", 
        "eps": "2e-05", 
        "fix_gamma": "False", 
        "momentum": "0.9", 
        "use_global_stats": "False"
      }, 
      "inputs": []
    }, 
    {
      "op": "null", 
      "name": "stage3_unit10_bn3_moving_var", 
      "attr": {
        "__init__": "[\"one\", {}]", 
        "eps": "2e-05", 
        "fix_gamma": "False", 
        "momentum": "0.9", 
        "use_global_stats": "False"
      }, 
      "inputs": []
    }, 
    {
      "op": "BatchNorm", 
      "name": "stage3_unit10_bn3", 
      "attr": {
        "eps": "2e-05", 
        "fix_gamma": "False", 
        "momentum": "0.9", 
        "use_global_stats": "False"
      }, 
      "inputs": [[436, 0, 0], [437, 0, 0], [438, 0, 0], [439, 0, 0], [440, 0, 0]]
    }, 
    {
      "op": "Activation", 
      "name": "stage3_unit10_relu3", 
      "attr": {"act_type": "relu"}, 
      "inputs": [[441, 0, 0]]
    }, 
    {
      "op": "null", 
      "name": "stage3_unit10_conv3_weight", 
      "inputs": []
    }, 
    {
      "op": "Convolution", 
      "name": "stage3_unit10_conv3", 
      "attr": {
        "cudnn_off": "False", 
        "dilate": "(1,1)", 
        "kernel": "(1,1)", 
        "no_bias": "True", 
        "num_filter": "1024", 
        "num_group": "1", 
        "pad": "(0,0)", 
        "stride": "(1,1)", 
        "workspace": "512"
      }, 
      "inputs": [[442, 0, 0], [443, 0, 0]]
    }, 
    {
      "op": "elemwise_add", 
      "name": "_plus16", 
      "inputs": [[444, 0, 0], [420, 0, 0]]
    }, 
    {
      "op": "null", 
      "name": "stage3_unit11_bn1_gamma", 
      "inputs": []
    }, 
    {
      "op": "null", 
      "name": "stage3_unit11_bn1_beta", 
      "inputs": []
    }, 
    {
      "op": "null", 
      "name": "stage3_unit11_bn1_moving_mean", 
      "attr": {
        "__init__": "[\"zero\", {}]", 
        "eps": "2e-05", 
        "fix_gamma": "False", 
        "momentum": "0.9", 
        "use_global_stats": "False"
      }, 
      "inputs": []
    }, 
    {
      "op": "null", 
      "name": "stage3_unit11_bn1_moving_var", 
      "attr": {
        "__init__": "[\"one\", {}]", 
        "eps": "2e-05", 
        "fix_gamma": "False", 
        "momentum": "0.9", 
        "use_global_stats": "False"
      }, 
      "inputs": []
    }, 
    {
      "op": "BatchNorm", 
      "name": "stage3_unit11_bn1", 
      "attr": {
        "eps": "2e-05", 
        "fix_gamma": "False", 
        "momentum": "0.9", 
        "use_global_stats": "False"
      }, 
      "inputs": [[445, 0, 0], [446, 0, 0], [447, 0, 0], [448, 0, 0], [449, 0, 0]]
    }, 
    {
      "op": "Activation", 
      "name": "stage3_unit11_relu1", 
      "attr": {"act_type": "relu"}, 
      "inputs": [[450, 0, 0]]
    }, 
    {
      "op": "null", 
      "name": "stage3_unit11_conv1_weight", 
      "inputs": []
    }, 
    {
      "op": "Convolution", 
      "name": "stage3_unit11_conv1", 
      "attr": {
        "cudnn_off": "False", 
        "dilate": "(1,1)", 
        "kernel": "(1,1)", 
        "no_bias": "True", 
        "num_filter": "256", 
        "num_group": "1", 
        "pad": "(0,0)", 
        "stride": "(1,1)", 
        "workspace": "512"
      }, 
      "inputs": [[451, 0, 0], [452, 0, 0]]
    }, 
    {
      "op": "null", 
      "name": "stage3_unit11_bn2_gamma", 
      "inputs": []
    }, 
    {
      "op": "null", 
      "name": "stage3_unit11_bn2_beta", 
      "inputs": []
    }, 
    {
      "op": "null", 
      "name": "stage3_unit11_bn2_moving_mean", 
      "attr": {
        "__init__": "[\"zero\", {}]", 
        "eps": "2e-05", 
        "fix_gamma": "False", 
        "momentum": "0.9", 
        "use_global_stats": "False"
      }, 
      "inputs": []
    }, 
    {
      "op": "null", 
      "name": "stage3_unit11_bn2_moving_var", 
      "attr": {
        "__init__": "[\"one\", {}]", 
        "eps": "2e-05", 
        "fix_gamma": "False", 
        "momentum": "0.9", 
        "use_global_stats": "False"
      }, 
      "inputs": []
    }, 
    {
      "op": "BatchNorm", 
      "name": "stage3_unit11_bn2", 
      "attr": {
        "eps": "2e-05", 
        "fix_gamma": "False", 
        "momentum": "0.9", 
        "use_global_stats": "False"
      }, 
      "inputs": [[453, 0, 0], [454, 0, 0], [455, 0, 0], [456, 0, 0], [457, 0, 0]]
    }, 
    {
      "op": "Activation", 
      "name": "stage3_unit11_relu2", 
      "attr": {"act_type": "relu"}, 
      "inputs": [[458, 0, 0]]
    }, 
    {
      "op": "null", 
      "name": "stage3_unit11_conv2_weight", 
      "inputs": []
    }, 
    {
      "op": "Convolution", 
      "name": "stage3_unit11_conv2", 
      "attr": {
        "cudnn_off": "False", 
        "dilate": "(1,1)", 
        "kernel": "(3,3)", 
        "no_bias": "True", 
        "num_filter": "256", 
        "num_group": "1", 
        "pad": "(1,1)", 
        "stride": "(1,1)", 
        "workspace": "512"
      }, 
      "inputs": [[459, 0, 0], [460, 0, 0]]
    }, 
    {
      "op": "null", 
      "name": "stage3_unit11_bn3_gamma", 
      "inputs": []
    }, 
    {
      "op": "null", 
      "name": "stage3_unit11_bn3_beta", 
      "inputs": []
    }, 
    {
      "op": "null", 
      "name": "stage3_unit11_bn3_moving_mean", 
      "attr": {
        "__init__": "[\"zero\", {}]", 
        "eps": "2e-05", 
        "fix_gamma": "False", 
        "momentum": "0.9", 
        "use_global_stats": "False"
      }, 
      "inputs": []
    }, 
    {
      "op": "null", 
      "name": "stage3_unit11_bn3_moving_var", 
      "attr": {
        "__init__": "[\"one\", {}]", 
        "eps": "2e-05", 
        "fix_gamma": "False", 
        "momentum": "0.9", 
        "use_global_stats": "False"
      }, 
      "inputs": []
    }, 
    {
      "op": "BatchNorm", 
      "name": "stage3_unit11_bn3", 
      "attr": {
        "eps": "2e-05", 
        "fix_gamma": "False", 
        "momentum": "0.9", 
        "use_global_stats": "False"
      }, 
      "inputs": [[461, 0, 0], [462, 0, 0], [463, 0, 0], [464, 0, 0], [465, 0, 0]]
    }, 
    {
      "op": "Activation", 
      "name": "stage3_unit11_relu3", 
      "attr": {"act_type": "relu"}, 
      "inputs": [[466, 0, 0]]
    }, 
    {
      "op": "null", 
      "name": "stage3_unit11_conv3_weight", 
      "inputs": []
    }, 
    {
      "op": "Convolution", 
      "name": "stage3_unit11_conv3", 
      "attr": {
        "cudnn_off": "False", 
        "dilate": "(1,1)", 
        "kernel": "(1,1)", 
        "no_bias": "True", 
        "num_filter": "1024", 
        "num_group": "1", 
        "pad": "(0,0)", 
        "stride": "(1,1)", 
        "workspace": "512"
      }, 
      "inputs": [[467, 0, 0], [468, 0, 0]]
    }, 
    {
      "op": "elemwise_add", 
      "name": "_plus17", 
      "inputs": [[469, 0, 0], [445, 0, 0]]
    }, 
    {
      "op": "null", 
      "name": "stage3_unit12_bn1_gamma", 
      "inputs": []
    }, 
    {
      "op": "null", 
      "name": "stage3_unit12_bn1_beta", 
      "inputs": []
    }, 
    {
      "op": "null", 
      "name": "stage3_unit12_bn1_moving_mean", 
      "attr": {
        "__init__": "[\"zero\", {}]", 
        "eps": "2e-05", 
        "fix_gamma": "False", 
        "momentum": "0.9", 
        "use_global_stats": "False"
      }, 
      "inputs": []
    }, 
    {
      "op": "null", 
      "name": "stage3_unit12_bn1_moving_var", 
      "attr": {
        "__init__": "[\"one\", {}]", 
        "eps": "2e-05", 
        "fix_gamma": "False", 
        "momentum": "0.9", 
        "use_global_stats": "False"
      }, 
      "inputs": []
    }, 
    {
      "op": "BatchNorm", 
      "name": "stage3_unit12_bn1", 
      "attr": {
        "eps": "2e-05", 
        "fix_gamma": "False", 
        "momentum": "0.9", 
        "use_global_stats": "False"
      }, 
      "inputs": [[470, 0, 0], [471, 0, 0], [472, 0, 0], [473, 0, 0], [474, 0, 0]]
    }, 
    {
      "op": "Activation", 
      "name": "stage3_unit12_relu1", 
      "attr": {"act_type": "relu"}, 
      "inputs": [[475, 0, 0]]
    }, 
    {
      "op": "null", 
      "name": "stage3_unit12_conv1_weight", 
      "inputs": []
    }, 
    {
      "op": "Convolution", 
      "name": "stage3_unit12_conv1", 
      "attr": {
        "cudnn_off": "False", 
        "dilate": "(1,1)", 
        "kernel": "(1,1)", 
        "no_bias": "True", 
        "num_filter": "256", 
        "num_group": "1", 
        "pad": "(0,0)", 
        "stride": "(1,1)", 
        "workspace": "512"
      }, 
      "inputs": [[476, 0, 0], [477, 0, 0]]
    }, 
    {
      "op": "null", 
      "name": "stage3_unit12_bn2_gamma", 
      "inputs": []
    }, 
    {
      "op": "null", 
      "name": "stage3_unit12_bn2_beta", 
      "inputs": []
    }, 
    {
      "op": "null", 
      "name": "stage3_unit12_bn2_moving_mean", 
      "attr": {
        "__init__": "[\"zero\", {}]", 
        "eps": "2e-05", 
        "fix_gamma": "False", 
        "momentum": "0.9", 
        "use_global_stats": "False"
      }, 
      "inputs": []
    }, 
    {
      "op": "null", 
      "name": "stage3_unit12_bn2_moving_var", 
      "attr": {
        "__init__": "[\"one\", {}]", 
        "eps": "2e-05", 
        "fix_gamma": "False", 
        "momentum": "0.9", 
        "use_global_stats": "False"
      }, 
      "inputs": []
    }, 
    {
      "op": "BatchNorm", 
      "name": "stage3_unit12_bn2", 
      "attr": {
        "eps": "2e-05", 
        "fix_gamma": "False", 
        "momentum": "0.9", 
        "use_global_stats": "False"
      }, 
      "inputs": [[478, 0, 0], [479, 0, 0], [480, 0, 0], [481, 0, 0], [482, 0, 0]]
    }, 
    {
      "op": "Activation", 
      "name": "stage3_unit12_relu2", 
      "attr": {"act_type": "relu"}, 
      "inputs": [[483, 0, 0]]
    }, 
    {
      "op": "null", 
      "name": "stage3_unit12_conv2_weight", 
      "inputs": []
    }, 
    {
      "op": "Convolution", 
      "name": "stage3_unit12_conv2", 
      "attr": {
        "cudnn_off": "False", 
        "dilate": "(1,1)", 
        "kernel": "(3,3)", 
        "no_bias": "True", 
        "num_filter": "256", 
        "num_group": "1", 
        "pad": "(1,1)", 
        "stride": "(1,1)", 
        "workspace": "512"
      }, 
      "inputs": [[484, 0, 0], [485, 0, 0]]
    }, 
    {
      "op": "null", 
      "name": "stage3_unit12_bn3_gamma", 
      "inputs": []
    }, 
    {
      "op": "null", 
      "name": "stage3_unit12_bn3_beta", 
      "inputs": []
    }, 
    {
      "op": "null", 
      "name": "stage3_unit12_bn3_moving_mean", 
      "attr": {
        "__init__": "[\"zero\", {}]", 
        "eps": "2e-05", 
        "fix_gamma": "False", 
        "momentum": "0.9", 
        "use_global_stats": "False"
      }, 
      "inputs": []
    }, 
    {
      "op": "null", 
      "name": "stage3_unit12_bn3_moving_var", 
      "attr": {
        "__init__": "[\"one\", {}]", 
        "eps": "2e-05", 
        "fix_gamma": "False", 
        "momentum": "0.9", 
        "use_global_stats": "False"
      }, 
      "inputs": []
    }, 
    {
      "op": "BatchNorm", 
      "name": "stage3_unit12_bn3", 
      "attr": {
        "eps": "2e-05", 
        "fix_gamma": "False", 
        "momentum": "0.9", 
        "use_global_stats": "False"
      }, 
      "inputs": [[486, 0, 0], [487, 0, 0], [488, 0, 0], [489, 0, 0], [490, 0, 0]]
    }, 
    {
      "op": "Activation", 
      "name": "stage3_unit12_relu3", 
      "attr": {"act_type": "relu"}, 
      "inputs": [[491, 0, 0]]
    }, 
    {
      "op": "null", 
      "name": "stage3_unit12_conv3_weight", 
      "inputs": []
    }, 
    {
      "op": "Convolution", 
      "name": "stage3_unit12_conv3", 
      "attr": {
        "cudnn_off": "False", 
        "dilate": "(1,1)", 
        "kernel": "(1,1)", 
        "no_bias": "True", 
        "num_filter": "1024", 
        "num_group": "1", 
        "pad": "(0,0)", 
        "stride": "(1,1)", 
        "workspace": "512"
      }, 
      "inputs": [[492, 0, 0], [493, 0, 0]]
    }, 
    {
      "op": "elemwise_add", 
      "name": "_plus18", 
      "inputs": [[494, 0, 0], [470, 0, 0]]
    }, 
    {
      "op": "null", 
      "name": "stage3_unit13_bn1_gamma", 
      "inputs": []
    }, 
    {
      "op": "null", 
      "name": "stage3_unit13_bn1_beta", 
      "inputs": []
    }, 
    {
      "op": "null", 
      "name": "stage3_unit13_bn1_moving_mean", 
      "attr": {
        "__init__": "[\"zero\", {}]", 
        "eps": "2e-05", 
        "fix_gamma": "False", 
        "momentum": "0.9", 
        "use_global_stats": "False"
      }, 
      "inputs": []
    }, 
    {
      "op": "null", 
      "name": "stage3_unit13_bn1_moving_var", 
      "attr": {
        "__init__": "[\"one\", {}]", 
        "eps": "2e-05", 
        "fix_gamma": "False", 
        "momentum": "0.9", 
        "use_global_stats": "False"
      }, 
      "inputs": []
    }, 
    {
      "op": "BatchNorm", 
      "name": "stage3_unit13_bn1", 
      "attr": {
        "eps": "2e-05", 
        "fix_gamma": "False", 
        "momentum": "0.9", 
        "use_global_stats": "False"
      }, 
      "inputs": [[495, 0, 0], [496, 0, 0], [497, 0, 0], [498, 0, 0], [499, 0, 0]]
    }, 
    {
      "op": "Activation", 
      "name": "stage3_unit13_relu1", 
      "attr": {"act_type": "relu"}, 
      "inputs": [[500, 0, 0]]
    }, 
    {
      "op": "null", 
      "name": "stage3_unit13_conv1_weight", 
      "inputs": []
    }, 
    {
      "op": "Convolution", 
      "name": "stage3_unit13_conv1", 
      "attr": {
        "cudnn_off": "False", 
        "dilate": "(1,1)", 
        "kernel": "(1,1)", 
        "no_bias": "True", 
        "num_filter": "256", 
        "num_group": "1", 
        "pad": "(0,0)", 
        "stride": "(1,1)", 
        "workspace": "512"
      }, 
      "inputs": [[501, 0, 0], [502, 0, 0]]
    }, 
    {
      "op": "null", 
      "name": "stage3_unit13_bn2_gamma", 
      "inputs": []
    }, 
    {
      "op": "null", 
      "name": "stage3_unit13_bn2_beta", 
      "inputs": []
    }, 
    {
      "op": "null", 
      "name": "stage3_unit13_bn2_moving_mean", 
      "attr": {
        "__init__": "[\"zero\", {}]", 
        "eps": "2e-05", 
        "fix_gamma": "False", 
        "momentum": "0.9", 
        "use_global_stats": "False"
      }, 
      "inputs": []
    }, 
    {
      "op": "null", 
      "name": "stage3_unit13_bn2_moving_var", 
      "attr": {
        "__init__": "[\"one\", {}]", 
        "eps": "2e-05", 
        "fix_gamma": "False", 
        "momentum": "0.9", 
        "use_global_stats": "False"
      }, 
      "inputs": []
    }, 
    {
      "op": "BatchNorm", 
      "name": "stage3_unit13_bn2", 
      "attr": {
        "eps": "2e-05", 
        "fix_gamma": "False", 
        "momentum": "0.9", 
        "use_global_stats": "False"
      }, 
      "inputs": [[503, 0, 0], [504, 0, 0], [505, 0, 0], [506, 0, 0], [507, 0, 0]]
    }, 
    {
      "op": "Activation", 
      "name": "stage3_unit13_relu2", 
      "attr": {"act_type": "relu"}, 
      "inputs": [[508, 0, 0]]
    }, 
    {
      "op": "null", 
      "name": "stage3_unit13_conv2_weight", 
      "inputs": []
    }, 
    {
      "op": "Convolution", 
      "name": "stage3_unit13_conv2", 
      "attr": {
        "cudnn_off": "False", 
        "dilate": "(1,1)", 
        "kernel": "(3,3)", 
        "no_bias": "True", 
        "num_filter": "256", 
        "num_group": "1", 
        "pad": "(1,1)", 
        "stride": "(1,1)", 
        "workspace": "512"
      }, 
      "inputs": [[509, 0, 0], [510, 0, 0]]
    }, 
    {
      "op": "null", 
      "name": "stage3_unit13_bn3_gamma", 
      "inputs": []
    }, 
    {
      "op": "null", 
      "name": "stage3_unit13_bn3_beta", 
      "inputs": []
    }, 
    {
      "op": "null", 
      "name": "stage3_unit13_bn3_moving_mean", 
      "attr": {
        "__init__": "[\"zero\", {}]", 
        "eps": "2e-05", 
        "fix_gamma": "False", 
        "momentum": "0.9", 
        "use_global_stats": "False"
      }, 
      "inputs": []
    }, 
    {
      "op": "null", 
      "name": "stage3_unit13_bn3_moving_var", 
      "attr": {
        "__init__": "[\"one\", {}]", 
        "eps": "2e-05", 
        "fix_gamma": "False", 
        "momentum": "0.9", 
        "use_global_stats": "False"
      }, 
      "inputs": []
    }, 
    {
      "op": "BatchNorm", 
      "name": "stage3_unit13_bn3", 
      "attr": {
        "eps": "2e-05", 
        "fix_gamma": "False", 
        "momentum": "0.9", 
        "use_global_stats": "False"
      }, 
      "inputs": [[511, 0, 0], [512, 0, 0], [513, 0, 0], [514, 0, 0], [515, 0, 0]]
    }, 
    {
      "op": "Activation", 
      "name": "stage3_unit13_relu3", 
      "attr": {"act_type": "relu"}, 
      "inputs": [[516, 0, 0]]
    }, 
    {
      "op": "null", 
      "name": "stage3_unit13_conv3_weight", 
      "inputs": []
    }, 
    {
      "op": "Convolution", 
      "name": "stage3_unit13_conv3", 
      "attr": {
        "cudnn_off": "False", 
        "dilate": "(1,1)", 
        "kernel": "(1,1)", 
        "no_bias": "True", 
        "num_filter": "1024", 
        "num_group": "1", 
        "pad": "(0,0)", 
        "stride": "(1,1)", 
        "workspace": "512"
      }, 
      "inputs": [[517, 0, 0], [518, 0, 0]]
    }, 
    {
      "op": "elemwise_add", 
      "name": "_plus19", 
      "inputs": [[519, 0, 0], [495, 0, 0]]
    }, 
    {
      "op": "null", 
      "name": "stage3_unit14_bn1_gamma", 
      "inputs": []
    }, 
    {
      "op": "null", 
      "name": "stage3_unit14_bn1_beta", 
      "inputs": []
    }, 
    {
      "op": "null", 
      "name": "stage3_unit14_bn1_moving_mean", 
      "attr": {
        "__init__": "[\"zero\", {}]", 
        "eps": "2e-05", 
        "fix_gamma": "False", 
        "momentum": "0.9", 
        "use_global_stats": "False"
      }, 
      "inputs": []
    }, 
    {
      "op": "null", 
      "name": "stage3_unit14_bn1_moving_var", 
      "attr": {
        "__init__": "[\"one\", {}]", 
        "eps": "2e-05", 
        "fix_gamma": "False", 
        "momentum": "0.9", 
        "use_global_stats": "False"
      }, 
      "inputs": []
    }, 
    {
      "op": "BatchNorm", 
      "name": "stage3_unit14_bn1", 
      "attr": {
        "eps": "2e-05", 
        "fix_gamma": "False", 
        "momentum": "0.9", 
        "use_global_stats": "False"
      }, 
      "inputs": [[520, 0, 0], [521, 0, 0], [522, 0, 0], [523, 0, 0], [524, 0, 0]]
    }, 
    {
      "op": "Activation", 
      "name": "stage3_unit14_relu1", 
      "attr": {"act_type": "relu"}, 
      "inputs": [[525, 0, 0]]
    }, 
    {
      "op": "null", 
      "name": "stage3_unit14_conv1_weight", 
      "inputs": []
    }, 
    {
      "op": "Convolution", 
      "name": "stage3_unit14_conv1", 
      "attr": {
        "cudnn_off": "False", 
        "dilate": "(1,1)", 
        "kernel": "(1,1)", 
        "no_bias": "True", 
        "num_filter": "256", 
        "num_group": "1", 
        "pad": "(0,0)", 
        "stride": "(1,1)", 
        "workspace": "512"
      }, 
      "inputs": [[526, 0, 0], [527, 0, 0]]
    }, 
    {
      "op": "null", 
      "name": "stage3_unit14_bn2_gamma", 
      "inputs": []
    }, 
    {
      "op": "null", 
      "name": "stage3_unit14_bn2_beta", 
      "inputs": []
    }, 
    {
      "op": "null", 
      "name": "stage3_unit14_bn2_moving_mean", 
      "attr": {
        "__init__": "[\"zero\", {}]", 
        "eps": "2e-05", 
        "fix_gamma": "False", 
        "momentum": "0.9", 
        "use_global_stats": "False"
      }, 
      "inputs": []
    }, 
    {
      "op": "null", 
      "name": "stage3_unit14_bn2_moving_var", 
      "attr": {
        "__init__": "[\"one\", {}]", 
        "eps": "2e-05", 
        "fix_gamma": "False", 
        "momentum": "0.9", 
        "use_global_stats": "False"
      }, 
      "inputs": []
    }, 
    {
      "op": "BatchNorm", 
      "name": "stage3_unit14_bn2", 
      "attr": {
        "eps": "2e-05", 
        "fix_gamma": "False", 
        "momentum": "0.9", 
        "use_global_stats": "False"
      }, 
      "inputs": [[528, 0, 0], [529, 0, 0], [530, 0, 0], [531, 0, 0], [532, 0, 0]]
    }, 
    {
      "op": "Activation", 
      "name": "stage3_unit14_relu2", 
      "attr": {"act_type": "relu"}, 
      "inputs": [[533, 0, 0]]
    }, 
    {
      "op": "null", 
      "name": "stage3_unit14_conv2_weight", 
      "inputs": []
    }, 
    {
      "op": "Convolution", 
      "name": "stage3_unit14_conv2", 
      "attr": {
        "cudnn_off": "False", 
        "dilate": "(1,1)", 
        "kernel": "(3,3)", 
        "no_bias": "True", 
        "num_filter": "256", 
        "num_group": "1", 
        "pad": "(1,1)", 
        "stride": "(1,1)", 
        "workspace": "512"
      }, 
      "inputs": [[534, 0, 0], [535, 0, 0]]
    }, 
    {
      "op": "null", 
      "name": "stage3_unit14_bn3_gamma", 
      "inputs": []
    }, 
    {
      "op": "null", 
      "name": "stage3_unit14_bn3_beta", 
      "inputs": []
    }, 
    {
      "op": "null", 
      "name": "stage3_unit14_bn3_moving_mean", 
      "attr": {
        "__init__": "[\"zero\", {}]", 
        "eps": "2e-05", 
        "fix_gamma": "False", 
        "momentum": "0.9", 
        "use_global_stats": "False"
      }, 
      "inputs": []
    }, 
    {
      "op": "null", 
      "name": "stage3_unit14_bn3_moving_var", 
      "attr": {
        "__init__": "[\"one\", {}]", 
        "eps": "2e-05", 
        "fix_gamma": "False", 
        "momentum": "0.9", 
        "use_global_stats": "False"
      }, 
      "inputs": []
    }, 
    {
      "op": "BatchNorm", 
      "name": "stage3_unit14_bn3", 
      "attr": {
        "eps": "2e-05", 
        "fix_gamma": "False", 
        "momentum": "0.9", 
        "use_global_stats": "False"
      }, 
      "inputs": [[536, 0, 0], [537, 0, 0], [538, 0, 0], [539, 0, 0], [540, 0, 0]]
    }, 
    {
      "op": "Activation", 
      "name": "stage3_unit14_relu3", 
      "attr": {"act_type": "relu"}, 
      "inputs": [[541, 0, 0]]
    }, 
    {
      "op": "null", 
      "name": "stage3_unit14_conv3_weight", 
      "inputs": []
    }, 
    {
      "op": "Convolution", 
      "name": "stage3_unit14_conv3", 
      "attr": {
        "cudnn_off": "False", 
        "dilate": "(1,1)", 
        "kernel": "(1,1)", 
        "no_bias": "True", 
        "num_filter": "1024", 
        "num_group": "1", 
        "pad": "(0,0)", 
        "stride": "(1,1)", 
        "workspace": "512"
      }, 
      "inputs": [[542, 0, 0], [543, 0, 0]]
    }, 
    {
      "op": "elemwise_add", 
      "name": "_plus20", 
      "inputs": [[544, 0, 0], [520, 0, 0]]
    }, 
    {
      "op": "null", 
      "name": "stage3_unit15_bn1_gamma", 
      "inputs": []
    }, 
    {
      "op": "null", 
      "name": "stage3_unit15_bn1_beta", 
      "inputs": []
    }, 
    {
      "op": "null", 
      "name": "stage3_unit15_bn1_moving_mean", 
      "attr": {
        "__init__": "[\"zero\", {}]", 
        "eps": "2e-05", 
        "fix_gamma": "False", 
        "momentum": "0.9", 
        "use_global_stats": "False"
      }, 
      "inputs": []
    }, 
    {
      "op": "null", 
      "name": "stage3_unit15_bn1_moving_var", 
      "attr": {
        "__init__": "[\"one\", {}]", 
        "eps": "2e-05", 
        "fix_gamma": "False", 
        "momentum": "0.9", 
        "use_global_stats": "False"
      }, 
      "inputs": []
    }, 
    {
      "op": "BatchNorm", 
      "name": "stage3_unit15_bn1", 
      "attr": {
        "eps": "2e-05", 
        "fix_gamma": "False", 
        "momentum": "0.9", 
        "use_global_stats": "False"
      }, 
      "inputs": [[545, 0, 0], [546, 0, 0], [547, 0, 0], [548, 0, 0], [549, 0, 0]]
    }, 
    {
      "op": "Activation", 
      "name": "stage3_unit15_relu1", 
      "attr": {"act_type": "relu"}, 
      "inputs": [[550, 0, 0]]
    }, 
    {
      "op": "null", 
      "name": "stage3_unit15_conv1_weight", 
      "inputs": []
    }, 
    {
      "op": "Convolution", 
      "name": "stage3_unit15_conv1", 
      "attr": {
        "cudnn_off": "False", 
        "dilate": "(1,1)", 
        "kernel": "(1,1)", 
        "no_bias": "True", 
        "num_filter": "256", 
        "num_group": "1", 
        "pad": "(0,0)", 
        "stride": "(1,1)", 
        "workspace": "512"
      }, 
      "inputs": [[551, 0, 0], [552, 0, 0]]
    }, 
    {
      "op": "null", 
      "name": "stage3_unit15_bn2_gamma", 
      "inputs": []
    }, 
    {
      "op": "null", 
      "name": "stage3_unit15_bn2_beta", 
      "inputs": []
    }, 
    {
      "op": "null", 
      "name": "stage3_unit15_bn2_moving_mean", 
      "attr": {
        "__init__": "[\"zero\", {}]", 
        "eps": "2e-05", 
        "fix_gamma": "False", 
        "momentum": "0.9", 
        "use_global_stats": "False"
      }, 
      "inputs": []
    }, 
    {
      "op": "null", 
      "name": "stage3_unit15_bn2_moving_var", 
      "attr": {
        "__init__": "[\"one\", {}]", 
        "eps": "2e-05", 
        "fix_gamma": "False", 
        "momentum": "0.9", 
        "use_global_stats": "False"
      }, 
      "inputs": []
    }, 
    {
      "op": "BatchNorm", 
      "name": "stage3_unit15_bn2", 
      "attr": {
        "eps": "2e-05", 
        "fix_gamma": "False", 
        "momentum": "0.9", 
        "use_global_stats": "False"
      }, 
      "inputs": [[553, 0, 0], [554, 0, 0], [555, 0, 0], [556, 0, 0], [557, 0, 0]]
    }, 
    {
      "op": "Activation", 
      "name": "stage3_unit15_relu2", 
      "attr": {"act_type": "relu"}, 
      "inputs": [[558, 0, 0]]
    }, 
    {
      "op": "null", 
      "name": "stage3_unit15_conv2_weight", 
      "inputs": []
    }, 
    {
      "op": "Convolution", 
      "name": "stage3_unit15_conv2", 
      "attr": {
        "cudnn_off": "False", 
        "dilate": "(1,1)", 
        "kernel": "(3,3)", 
        "no_bias": "True", 
        "num_filter": "256", 
        "num_group": "1", 
        "pad": "(1,1)", 
        "stride": "(1,1)", 
        "workspace": "512"
      }, 
      "inputs": [[559, 0, 0], [560, 0, 0]]
    }, 
    {
      "op": "null", 
      "name": "stage3_unit15_bn3_gamma", 
      "inputs": []
    }, 
    {
      "op": "null", 
      "name": "stage3_unit15_bn3_beta", 
      "inputs": []
    }, 
    {
      "op": "null", 
      "name": "stage3_unit15_bn3_moving_mean", 
      "attr": {
        "__init__": "[\"zero\", {}]", 
        "eps": "2e-05", 
        "fix_gamma": "False", 
        "momentum": "0.9", 
        "use_global_stats": "False"
      }, 
      "inputs": []
    }, 
    {
      "op": "null", 
      "name": "stage3_unit15_bn3_moving_var", 
      "attr": {
        "__init__": "[\"one\", {}]", 
        "eps": "2e-05", 
        "fix_gamma": "False", 
        "momentum": "0.9", 
        "use_global_stats": "False"
      }, 
      "inputs": []
    }, 
    {
      "op": "BatchNorm", 
      "name": "stage3_unit15_bn3", 
      "attr": {
        "eps": "2e-05", 
        "fix_gamma": "False", 
        "momentum": "0.9", 
        "use_global_stats": "False"
      }, 
      "inputs": [[561, 0, 0], [562, 0, 0], [563, 0, 0], [564, 0, 0], [565, 0, 0]]
    }, 
    {
      "op": "Activation", 
      "name": "stage3_unit15_relu3", 
      "attr": {"act_type": "relu"}, 
      "inputs": [[566, 0, 0]]
    }, 
    {
      "op": "null", 
      "name": "stage3_unit15_conv3_weight", 
      "inputs": []
    }, 
    {
      "op": "Convolution", 
      "name": "stage3_unit15_conv3", 
      "attr": {
        "cudnn_off": "False", 
        "dilate": "(1,1)", 
        "kernel": "(1,1)", 
        "no_bias": "True", 
        "num_filter": "1024", 
        "num_group": "1", 
        "pad": "(0,0)", 
        "stride": "(1,1)", 
        "workspace": "512"
      }, 
      "inputs": [[567, 0, 0], [568, 0, 0]]
    }, 
    {
      "op": "elemwise_add", 
      "name": "_plus21", 
      "inputs": [[569, 0, 0], [545, 0, 0]]
    }, 
    {
      "op": "null", 
      "name": "stage3_unit16_bn1_gamma", 
      "inputs": []
    }, 
    {
      "op": "null", 
      "name": "stage3_unit16_bn1_beta", 
      "inputs": []
    }, 
    {
      "op": "null", 
      "name": "stage3_unit16_bn1_moving_mean", 
      "attr": {
        "__init__": "[\"zero\", {}]", 
        "eps": "2e-05", 
        "fix_gamma": "False", 
        "momentum": "0.9", 
        "use_global_stats": "False"
      }, 
      "inputs": []
    }, 
    {
      "op": "null", 
      "name": "stage3_unit16_bn1_moving_var", 
      "attr": {
        "__init__": "[\"one\", {}]", 
        "eps": "2e-05", 
        "fix_gamma": "False", 
        "momentum": "0.9", 
        "use_global_stats": "False"
      }, 
      "inputs": []
    }, 
    {
      "op": "BatchNorm", 
      "name": "stage3_unit16_bn1", 
      "attr": {
        "eps": "2e-05", 
        "fix_gamma": "False", 
        "momentum": "0.9", 
        "use_global_stats": "False"
      }, 
      "inputs": [[570, 0, 0], [571, 0, 0], [572, 0, 0], [573, 0, 0], [574, 0, 0]]
    }, 
    {
      "op": "Activation", 
      "name": "stage3_unit16_relu1", 
      "attr": {"act_type": "relu"}, 
      "inputs": [[575, 0, 0]]
    }, 
    {
      "op": "null", 
      "name": "stage3_unit16_conv1_weight", 
      "inputs": []
    }, 
    {
      "op": "Convolution", 
      "name": "stage3_unit16_conv1", 
      "attr": {
        "cudnn_off": "False", 
        "dilate": "(1,1)", 
        "kernel": "(1,1)", 
        "no_bias": "True", 
        "num_filter": "256", 
        "num_group": "1", 
        "pad": "(0,0)", 
        "stride": "(1,1)", 
        "workspace": "512"
      }, 
      "inputs": [[576, 0, 0], [577, 0, 0]]
    }, 
    {
      "op": "null", 
      "name": "stage3_unit16_bn2_gamma", 
      "inputs": []
    }, 
    {
      "op": "null", 
      "name": "stage3_unit16_bn2_beta", 
      "inputs": []
    }, 
    {
      "op": "null", 
      "name": "stage3_unit16_bn2_moving_mean", 
      "attr": {
        "__init__": "[\"zero\", {}]", 
        "eps": "2e-05", 
        "fix_gamma": "False", 
        "momentum": "0.9", 
        "use_global_stats": "False"
      }, 
      "inputs": []
    }, 
    {
      "op": "null", 
      "name": "stage3_unit16_bn2_moving_var", 
      "attr": {
        "__init__": "[\"one\", {}]", 
        "eps": "2e-05", 
        "fix_gamma": "False", 
        "momentum": "0.9", 
        "use_global_stats": "False"
      }, 
      "inputs": []
    }, 
    {
      "op": "BatchNorm", 
      "name": "stage3_unit16_bn2", 
      "attr": {
        "eps": "2e-05", 
        "fix_gamma": "False", 
        "momentum": "0.9", 
        "use_global_stats": "False"
      }, 
      "inputs": [[578, 0, 0], [579, 0, 0], [580, 0, 0], [581, 0, 0], [582, 0, 0]]
    }, 
    {
      "op": "Activation", 
      "name": "stage3_unit16_relu2", 
      "attr": {"act_type": "relu"}, 
      "inputs": [[583, 0, 0]]
    }, 
    {
      "op": "null", 
      "name": "stage3_unit16_conv2_weight", 
      "inputs": []
    }, 
    {
      "op": "Convolution", 
      "name": "stage3_unit16_conv2", 
      "attr": {
        "cudnn_off": "False", 
        "dilate": "(1,1)", 
        "kernel": "(3,3)", 
        "no_bias": "True", 
        "num_filter": "256", 
        "num_group": "1", 
        "pad": "(1,1)", 
        "stride": "(1,1)", 
        "workspace": "512"
      }, 
      "inputs": [[584, 0, 0], [585, 0, 0]]
    }, 
    {
      "op": "null", 
      "name": "stage3_unit16_bn3_gamma", 
      "inputs": []
    }, 
    {
      "op": "null", 
      "name": "stage3_unit16_bn3_beta", 
      "inputs": []
    }, 
    {
      "op": "null", 
      "name": "stage3_unit16_bn3_moving_mean", 
      "attr": {
        "__init__": "[\"zero\", {}]", 
        "eps": "2e-05", 
        "fix_gamma": "False", 
        "momentum": "0.9", 
        "use_global_stats": "False"
      }, 
      "inputs": []
    }, 
    {
      "op": "null", 
      "name": "stage3_unit16_bn3_moving_var", 
      "attr": {
        "__init__": "[\"one\", {}]", 
        "eps": "2e-05", 
        "fix_gamma": "False", 
        "momentum": "0.9", 
        "use_global_stats": "False"
      }, 
      "inputs": []
    }, 
    {
      "op": "BatchNorm", 
      "name": "stage3_unit16_bn3", 
      "attr": {
        "eps": "2e-05", 
        "fix_gamma": "False", 
        "momentum": "0.9", 
        "use_global_stats": "False"
      }, 
      "inputs": [[586, 0, 0], [587, 0, 0], [588, 0, 0], [589, 0, 0], [590, 0, 0]]
    }, 
    {
      "op": "Activation", 
      "name": "stage3_unit16_relu3", 
      "attr": {"act_type": "relu"}, 
      "inputs": [[591, 0, 0]]
    }, 
    {
      "op": "null", 
      "name": "stage3_unit16_conv3_weight", 
      "inputs": []
    }, 
    {
      "op": "Convolution", 
      "name": "stage3_unit16_conv3", 
      "attr": {
        "cudnn_off": "False", 
        "dilate": "(1,1)", 
        "kernel": "(1,1)", 
        "no_bias": "True", 
        "num_filter": "1024", 
        "num_group": "1", 
        "pad": "(0,0)", 
        "stride": "(1,1)", 
        "workspace": "512"
      }, 
      "inputs": [[592, 0, 0], [593, 0, 0]]
    }, 
    {
      "op": "elemwise_add", 
      "name": "_plus22", 
      "inputs": [[594, 0, 0], [570, 0, 0]]
    }, 
    {
      "op": "null", 
      "name": "stage3_unit17_bn1_gamma", 
      "inputs": []
    }, 
    {
      "op": "null", 
      "name": "stage3_unit17_bn1_beta", 
      "inputs": []
    }, 
    {
      "op": "null", 
      "name": "stage3_unit17_bn1_moving_mean", 
      "attr": {
        "__init__": "[\"zero\", {}]", 
        "eps": "2e-05", 
        "fix_gamma": "False", 
        "momentum": "0.9", 
        "use_global_stats": "False"
      }, 
      "inputs": []
    }, 
    {
      "op": "null", 
      "name": "stage3_unit17_bn1_moving_var", 
      "attr": {
        "__init__": "[\"one\", {}]", 
        "eps": "2e-05", 
        "fix_gamma": "False", 
        "momentum": "0.9", 
        "use_global_stats": "False"
      }, 
      "inputs": []
    }, 
    {
      "op": "BatchNorm", 
      "name": "stage3_unit17_bn1", 
      "attr": {
        "eps": "2e-05", 
        "fix_gamma": "False", 
        "momentum": "0.9", 
        "use_global_stats": "False"
      }, 
      "inputs": [[595, 0, 0], [596, 0, 0], [597, 0, 0], [598, 0, 0], [599, 0, 0]]
    }, 
    {
      "op": "Activation", 
      "name": "stage3_unit17_relu1", 
      "attr": {"act_type": "relu"}, 
      "inputs": [[600, 0, 0]]
    }, 
    {
      "op": "null", 
      "name": "stage3_unit17_conv1_weight", 
      "inputs": []
    }, 
    {
      "op": "Convolution", 
      "name": "stage3_unit17_conv1", 
      "attr": {
        "cudnn_off": "False", 
        "dilate": "(1,1)", 
        "kernel": "(1,1)", 
        "no_bias": "True", 
        "num_filter": "256", 
        "num_group": "1", 
        "pad": "(0,0)", 
        "stride": "(1,1)", 
        "workspace": "512"
      }, 
      "inputs": [[601, 0, 0], [602, 0, 0]]
    }, 
    {
      "op": "null", 
      "name": "stage3_unit17_bn2_gamma", 
      "inputs": []
    }, 
    {
      "op": "null", 
      "name": "stage3_unit17_bn2_beta", 
      "inputs": []
    }, 
    {
      "op": "null", 
      "name": "stage3_unit17_bn2_moving_mean", 
      "attr": {
        "__init__": "[\"zero\", {}]", 
        "eps": "2e-05", 
        "fix_gamma": "False", 
        "momentum": "0.9", 
        "use_global_stats": "False"
      }, 
      "inputs": []
    }, 
    {
      "op": "null", 
      "name": "stage3_unit17_bn2_moving_var", 
      "attr": {
        "__init__": "[\"one\", {}]", 
        "eps": "2e-05", 
        "fix_gamma": "False", 
        "momentum": "0.9", 
        "use_global_stats": "False"
      }, 
      "inputs": []
    }, 
    {
      "op": "BatchNorm", 
      "name": "stage3_unit17_bn2", 
      "attr": {
        "eps": "2e-05", 
        "fix_gamma": "False", 
        "momentum": "0.9", 
        "use_global_stats": "False"
      }, 
      "inputs": [[603, 0, 0], [604, 0, 0], [605, 0, 0], [606, 0, 0], [607, 0, 0]]
    }, 
    {
      "op": "Activation", 
      "name": "stage3_unit17_relu2", 
      "attr": {"act_type": "relu"}, 
      "inputs": [[608, 0, 0]]
    }, 
    {
      "op": "null", 
      "name": "stage3_unit17_conv2_weight", 
      "inputs": []
    }, 
    {
      "op": "Convolution", 
      "name": "stage3_unit17_conv2", 
      "attr": {
        "cudnn_off": "False", 
        "dilate": "(1,1)", 
        "kernel": "(3,3)", 
        "no_bias": "True", 
        "num_filter": "256", 
        "num_group": "1", 
        "pad": "(1,1)", 
        "stride": "(1,1)", 
        "workspace": "512"
      }, 
      "inputs": [[609, 0, 0], [610, 0, 0]]
    }, 
    {
      "op": "null", 
      "name": "stage3_unit17_bn3_gamma", 
      "inputs": []
    }, 
    {
      "op": "null", 
      "name": "stage3_unit17_bn3_beta", 
      "inputs": []
    }, 
    {
      "op": "null", 
      "name": "stage3_unit17_bn3_moving_mean", 
      "attr": {
        "__init__": "[\"zero\", {}]", 
        "eps": "2e-05", 
        "fix_gamma": "False", 
        "momentum": "0.9", 
        "use_global_stats": "False"
      }, 
      "inputs": []
    }, 
    {
      "op": "null", 
      "name": "stage3_unit17_bn3_moving_var", 
      "attr": {
        "__init__": "[\"one\", {}]", 
        "eps": "2e-05", 
        "fix_gamma": "False", 
        "momentum": "0.9", 
        "use_global_stats": "False"
      }, 
      "inputs": []
    }, 
    {
      "op": "BatchNorm", 
      "name": "stage3_unit17_bn3", 
      "attr": {
        "eps": "2e-05", 
        "fix_gamma": "False", 
        "momentum": "0.9", 
        "use_global_stats": "False"
      }, 
      "inputs": [[611, 0, 0], [612, 0, 0], [613, 0, 0], [614, 0, 0], [615, 0, 0]]
    }, 
    {
      "op": "Activation", 
      "name": "stage3_unit17_relu3", 
      "attr": {"act_type": "relu"}, 
      "inputs": [[616, 0, 0]]
    }, 
    {
      "op": "null", 
      "name": "stage3_unit17_conv3_weight", 
      "inputs": []
    }, 
    {
      "op": "Convolution", 
      "name": "stage3_unit17_conv3", 
      "attr": {
        "cudnn_off": "False", 
        "dilate": "(1,1)", 
        "kernel": "(1,1)", 
        "no_bias": "True", 
        "num_filter": "1024", 
        "num_group": "1", 
        "pad": "(0,0)", 
        "stride": "(1,1)", 
        "workspace": "512"
      }, 
      "inputs": [[617, 0, 0], [618, 0, 0]]
    }, 
    {
      "op": "elemwise_add", 
      "name": "_plus23", 
      "inputs": [[619, 0, 0], [595, 0, 0]]
    }, 
    {
      "op": "null", 
      "name": "stage3_unit18_bn1_gamma", 
      "inputs": []
    }, 
    {
      "op": "null", 
      "name": "stage3_unit18_bn1_beta", 
      "inputs": []
    }, 
    {
      "op": "null", 
      "name": "stage3_unit18_bn1_moving_mean", 
      "attr": {
        "__init__": "[\"zero\", {}]", 
        "eps": "2e-05", 
        "fix_gamma": "False", 
        "momentum": "0.9", 
        "use_global_stats": "False"
      }, 
      "inputs": []
    }, 
    {
      "op": "null", 
      "name": "stage3_unit18_bn1_moving_var", 
      "attr": {
        "__init__": "[\"one\", {}]", 
        "eps": "2e-05", 
        "fix_gamma": "False", 
        "momentum": "0.9", 
        "use_global_stats": "False"
      }, 
      "inputs": []
    }, 
    {
      "op": "BatchNorm", 
      "name": "stage3_unit18_bn1", 
      "attr": {
        "eps": "2e-05", 
        "fix_gamma": "False", 
        "momentum": "0.9", 
        "use_global_stats": "False"
      }, 
      "inputs": [[620, 0, 0], [621, 0, 0], [622, 0, 0], [623, 0, 0], [624, 0, 0]]
    }, 
    {
      "op": "Activation", 
      "name": "stage3_unit18_relu1", 
      "attr": {"act_type": "relu"}, 
      "inputs": [[625, 0, 0]]
    }, 
    {
      "op": "null", 
      "name": "stage3_unit18_conv1_weight", 
      "inputs": []
    }, 
    {
      "op": "Convolution", 
      "name": "stage3_unit18_conv1", 
      "attr": {
        "cudnn_off": "False", 
        "dilate": "(1,1)", 
        "kernel": "(1,1)", 
        "no_bias": "True", 
        "num_filter": "256", 
        "num_group": "1", 
        "pad": "(0,0)", 
        "stride": "(1,1)", 
        "workspace": "512"
      }, 
      "inputs": [[626, 0, 0], [627, 0, 0]]
    }, 
    {
      "op": "null", 
      "name": "stage3_unit18_bn2_gamma", 
      "inputs": []
    }, 
    {
      "op": "null", 
      "name": "stage3_unit18_bn2_beta", 
      "inputs": []
    }, 
    {
      "op": "null", 
      "name": "stage3_unit18_bn2_moving_mean", 
      "attr": {
        "__init__": "[\"zero\", {}]", 
        "eps": "2e-05", 
        "fix_gamma": "False", 
        "momentum": "0.9", 
        "use_global_stats": "False"
      }, 
      "inputs": []
    }, 
    {
      "op": "null", 
      "name": "stage3_unit18_bn2_moving_var", 
      "attr": {
        "__init__": "[\"one\", {}]", 
        "eps": "2e-05", 
        "fix_gamma": "False", 
        "momentum": "0.9", 
        "use_global_stats": "False"
      }, 
      "inputs": []
    }, 
    {
      "op": "BatchNorm", 
      "name": "stage3_unit18_bn2", 
      "attr": {
        "eps": "2e-05", 
        "fix_gamma": "False", 
        "momentum": "0.9", 
        "use_global_stats": "False"
      }, 
      "inputs": [[628, 0, 0], [629, 0, 0], [630, 0, 0], [631, 0, 0], [632, 0, 0]]
    }, 
    {
      "op": "Activation", 
      "name": "stage3_unit18_relu2", 
      "attr": {"act_type": "relu"}, 
      "inputs": [[633, 0, 0]]
    }, 
    {
      "op": "null", 
      "name": "stage3_unit18_conv2_weight", 
      "inputs": []
    }, 
    {
      "op": "Convolution", 
      "name": "stage3_unit18_conv2", 
      "attr": {
        "cudnn_off": "False", 
        "dilate": "(1,1)", 
        "kernel": "(3,3)", 
        "no_bias": "True", 
        "num_filter": "256", 
        "num_group": "1", 
        "pad": "(1,1)", 
        "stride": "(1,1)", 
        "workspace": "512"
      }, 
      "inputs": [[634, 0, 0], [635, 0, 0]]
    }, 
    {
      "op": "null", 
      "name": "stage3_unit18_bn3_gamma", 
      "inputs": []
    }, 
    {
      "op": "null", 
      "name": "stage3_unit18_bn3_beta", 
      "inputs": []
    }, 
    {
      "op": "null", 
      "name": "stage3_unit18_bn3_moving_mean", 
      "attr": {
        "__init__": "[\"zero\", {}]", 
        "eps": "2e-05", 
        "fix_gamma": "False", 
        "momentum": "0.9", 
        "use_global_stats": "False"
      }, 
      "inputs": []
    }, 
    {
      "op": "null", 
      "name": "stage3_unit18_bn3_moving_var", 
      "attr": {
        "__init__": "[\"one\", {}]", 
        "eps": "2e-05", 
        "fix_gamma": "False", 
        "momentum": "0.9", 
        "use_global_stats": "False"
      }, 
      "inputs": []
    }, 
    {
      "op": "BatchNorm", 
      "name": "stage3_unit18_bn3", 
      "attr": {
        "eps": "2e-05", 
        "fix_gamma": "False", 
        "momentum": "0.9", 
        "use_global_stats": "False"
      }, 
      "inputs": [[636, 0, 0], [637, 0, 0], [638, 0, 0], [639, 0, 0], [640, 0, 0]]
    }, 
    {
      "op": "Activation", 
      "name": "stage3_unit18_relu3", 
      "attr": {"act_type": "relu"}, 
      "inputs": [[641, 0, 0]]
    }, 
    {
      "op": "null", 
      "name": "stage3_unit18_conv3_weight", 
      "inputs": []
    }, 
    {
      "op": "Convolution", 
      "name": "stage3_unit18_conv3", 
      "attr": {
        "cudnn_off": "False", 
        "dilate": "(1,1)", 
        "kernel": "(1,1)", 
        "no_bias": "True", 
        "num_filter": "1024", 
        "num_group": "1", 
        "pad": "(0,0)", 
        "stride": "(1,1)", 
        "workspace": "512"
      }, 
      "inputs": [[642, 0, 0], [643, 0, 0]]
    }, 
    {
      "op": "elemwise_add", 
      "name": "_plus24", 
      "inputs": [[644, 0, 0], [620, 0, 0]]
    }, 
    {
      "op": "null", 
      "name": "stage3_unit19_bn1_gamma", 
      "inputs": []
    }, 
    {
      "op": "null", 
      "name": "stage3_unit19_bn1_beta", 
      "inputs": []
    }, 
    {
      "op": "null", 
      "name": "stage3_unit19_bn1_moving_mean", 
      "attr": {
        "__init__": "[\"zero\", {}]", 
        "eps": "2e-05", 
        "fix_gamma": "False", 
        "momentum": "0.9", 
        "use_global_stats": "False"
      }, 
      "inputs": []
    }, 
    {
      "op": "null", 
      "name": "stage3_unit19_bn1_moving_var", 
      "attr": {
        "__init__": "[\"one\", {}]", 
        "eps": "2e-05", 
        "fix_gamma": "False", 
        "momentum": "0.9", 
        "use_global_stats": "False"
      }, 
      "inputs": []
    }, 
    {
      "op": "BatchNorm", 
      "name": "stage3_unit19_bn1", 
      "attr": {
        "eps": "2e-05", 
        "fix_gamma": "False", 
        "momentum": "0.9", 
        "use_global_stats": "False"
      }, 
      "inputs": [[645, 0, 0], [646, 0, 0], [647, 0, 0], [648, 0, 0], [649, 0, 0]]
    }, 
    {
      "op": "Activation", 
      "name": "stage3_unit19_relu1", 
      "attr": {"act_type": "relu"}, 
      "inputs": [[650, 0, 0]]
    }, 
    {
      "op": "null", 
      "name": "stage3_unit19_conv1_weight", 
      "inputs": []
    }, 
    {
      "op": "Convolution", 
      "name": "stage3_unit19_conv1", 
      "attr": {
        "cudnn_off": "False", 
        "dilate": "(1,1)", 
        "kernel": "(1,1)", 
        "no_bias": "True", 
        "num_filter": "256", 
        "num_group": "1", 
        "pad": "(0,0)", 
        "stride": "(1,1)", 
        "workspace": "512"
      }, 
      "inputs": [[651, 0, 0], [652, 0, 0]]
    }, 
    {
      "op": "null", 
      "name": "stage3_unit19_bn2_gamma", 
      "inputs": []
    }, 
    {
      "op": "null", 
      "name": "stage3_unit19_bn2_beta", 
      "inputs": []
    }, 
    {
      "op": "null", 
      "name": "stage3_unit19_bn2_moving_mean", 
      "attr": {
        "__init__": "[\"zero\", {}]", 
        "eps": "2e-05", 
        "fix_gamma": "False", 
        "momentum": "0.9", 
        "use_global_stats": "False"
      }, 
      "inputs": []
    }, 
    {
      "op": "null", 
      "name": "stage3_unit19_bn2_moving_var", 
      "attr": {
        "__init__": "[\"one\", {}]", 
        "eps": "2e-05", 
        "fix_gamma": "False", 
        "momentum": "0.9", 
        "use_global_stats": "False"
      }, 
      "inputs": []
    }, 
    {
      "op": "BatchNorm", 
      "name": "stage3_unit19_bn2", 
      "attr": {
        "eps": "2e-05", 
        "fix_gamma": "False", 
        "momentum": "0.9", 
        "use_global_stats": "False"
      }, 
      "inputs": [[653, 0, 0], [654, 0, 0], [655, 0, 0], [656, 0, 0], [657, 0, 0]]
    }, 
    {
      "op": "Activation", 
      "name": "stage3_unit19_relu2", 
      "attr": {"act_type": "relu"}, 
      "inputs": [[658, 0, 0]]
    }, 
    {
      "op": "null", 
      "name": "stage3_unit19_conv2_weight", 
      "inputs": []
    }, 
    {
      "op": "Convolution", 
      "name": "stage3_unit19_conv2", 
      "attr": {
        "cudnn_off": "False", 
        "dilate": "(1,1)", 
        "kernel": "(3,3)", 
        "no_bias": "True", 
        "num_filter": "256", 
        "num_group": "1", 
        "pad": "(1,1)", 
        "stride": "(1,1)", 
        "workspace": "512"
      }, 
      "inputs": [[659, 0, 0], [660, 0, 0]]
    }, 
    {
      "op": "null", 
      "name": "stage3_unit19_bn3_gamma", 
      "inputs": []
    }, 
    {
      "op": "null", 
      "name": "stage3_unit19_bn3_beta", 
      "inputs": []
    }, 
    {
      "op": "null", 
      "name": "stage3_unit19_bn3_moving_mean", 
      "attr": {
        "__init__": "[\"zero\", {}]", 
        "eps": "2e-05", 
        "fix_gamma": "False", 
        "momentum": "0.9", 
        "use_global_stats": "False"
      }, 
      "inputs": []
    }, 
    {
      "op": "null", 
      "name": "stage3_unit19_bn3_moving_var", 
      "attr": {
        "__init__": "[\"one\", {}]", 
        "eps": "2e-05", 
        "fix_gamma": "False", 
        "momentum": "0.9", 
        "use_global_stats": "False"
      }, 
      "inputs": []
    }, 
    {
      "op": "BatchNorm", 
      "name": "stage3_unit19_bn3", 
      "attr": {
        "eps": "2e-05", 
        "fix_gamma": "False", 
        "momentum": "0.9", 
        "use_global_stats": "False"
      }, 
      "inputs": [[661, 0, 0], [662, 0, 0], [663, 0, 0], [664, 0, 0], [665, 0, 0]]
    }, 
    {
      "op": "Activation", 
      "name": "stage3_unit19_relu3", 
      "attr": {"act_type": "relu"}, 
      "inputs": [[666, 0, 0]]
    }, 
    {
      "op": "null", 
      "name": "stage3_unit19_conv3_weight", 
      "inputs": []
    }, 
    {
      "op": "Convolution", 
      "name": "stage3_unit19_conv3", 
      "attr": {
        "cudnn_off": "False", 
        "dilate": "(1,1)", 
        "kernel": "(1,1)", 
        "no_bias": "True", 
        "num_filter": "1024", 
        "num_group": "1", 
        "pad": "(0,0)", 
        "stride": "(1,1)", 
        "workspace": "512"
      }, 
      "inputs": [[667, 0, 0], [668, 0, 0]]
    }, 
    {
      "op": "elemwise_add", 
      "name": "_plus25", 
      "inputs": [[669, 0, 0], [645, 0, 0]]
    }, 
    {
      "op": "null", 
      "name": "stage3_unit20_bn1_gamma", 
      "inputs": []
    }, 
    {
      "op": "null", 
      "name": "stage3_unit20_bn1_beta", 
      "inputs": []
    }, 
    {
      "op": "null", 
      "name": "stage3_unit20_bn1_moving_mean", 
      "attr": {
        "__init__": "[\"zero\", {}]", 
        "eps": "2e-05", 
        "fix_gamma": "False", 
        "momentum": "0.9", 
        "use_global_stats": "False"
      }, 
      "inputs": []
    }, 
    {
      "op": "null", 
      "name": "stage3_unit20_bn1_moving_var", 
      "attr": {
        "__init__": "[\"one\", {}]", 
        "eps": "2e-05", 
        "fix_gamma": "False", 
        "momentum": "0.9", 
        "use_global_stats": "False"
      }, 
      "inputs": []
    }, 
    {
      "op": "BatchNorm", 
      "name": "stage3_unit20_bn1", 
      "attr": {
        "eps": "2e-05", 
        "fix_gamma": "False", 
        "momentum": "0.9", 
        "use_global_stats": "False"
      }, 
      "inputs": [[670, 0, 0], [671, 0, 0], [672, 0, 0], [673, 0, 0], [674, 0, 0]]
    }, 
    {
      "op": "Activation", 
      "name": "stage3_unit20_relu1", 
      "attr": {"act_type": "relu"}, 
      "inputs": [[675, 0, 0]]
    }, 
    {
      "op": "null", 
      "name": "stage3_unit20_conv1_weight", 
      "inputs": []
    }, 
    {
      "op": "Convolution", 
      "name": "stage3_unit20_conv1", 
      "attr": {
        "cudnn_off": "False", 
        "dilate": "(1,1)", 
        "kernel": "(1,1)", 
        "no_bias": "True", 
        "num_filter": "256", 
        "num_group": "1", 
        "pad": "(0,0)", 
        "stride": "(1,1)", 
        "workspace": "512"
      }, 
      "inputs": [[676, 0, 0], [677, 0, 0]]
    }, 
    {
      "op": "null", 
      "name": "stage3_unit20_bn2_gamma", 
      "inputs": []
    }, 
    {
      "op": "null", 
      "name": "stage3_unit20_bn2_beta", 
      "inputs": []
    }, 
    {
      "op": "null", 
      "name": "stage3_unit20_bn2_moving_mean", 
      "attr": {
        "__init__": "[\"zero\", {}]", 
        "eps": "2e-05", 
        "fix_gamma": "False", 
        "momentum": "0.9", 
        "use_global_stats": "False"
      }, 
      "inputs": []
    }, 
    {
      "op": "null", 
      "name": "stage3_unit20_bn2_moving_var", 
      "attr": {
        "__init__": "[\"one\", {}]", 
        "eps": "2e-05", 
        "fix_gamma": "False", 
        "momentum": "0.9", 
        "use_global_stats": "False"
      }, 
      "inputs": []
    }, 
    {
      "op": "BatchNorm", 
      "name": "stage3_unit20_bn2", 
      "attr": {
        "eps": "2e-05", 
        "fix_gamma": "False", 
        "momentum": "0.9", 
        "use_global_stats": "False"
      }, 
      "inputs": [[678, 0, 0], [679, 0, 0], [680, 0, 0], [681, 0, 0], [682, 0, 0]]
    }, 
    {
      "op": "Activation", 
      "name": "stage3_unit20_relu2", 
      "attr": {"act_type": "relu"}, 
      "inputs": [[683, 0, 0]]
    }, 
    {
      "op": "null", 
      "name": "stage3_unit20_conv2_weight", 
      "inputs": []
    }, 
    {
      "op": "Convolution", 
      "name": "stage3_unit20_conv2", 
      "attr": {
        "cudnn_off": "False", 
        "dilate": "(1,1)", 
        "kernel": "(3,3)", 
        "no_bias": "True", 
        "num_filter": "256", 
        "num_group": "1", 
        "pad": "(1,1)", 
        "stride": "(1,1)", 
        "workspace": "512"
      }, 
      "inputs": [[684, 0, 0], [685, 0, 0]]
    }, 
    {
      "op": "null", 
      "name": "stage3_unit20_bn3_gamma", 
      "inputs": []
    }, 
    {
      "op": "null", 
      "name": "stage3_unit20_bn3_beta", 
      "inputs": []
    }, 
    {
      "op": "null", 
      "name": "stage3_unit20_bn3_moving_mean", 
      "attr": {
        "__init__": "[\"zero\", {}]", 
        "eps": "2e-05", 
        "fix_gamma": "False", 
        "momentum": "0.9", 
        "use_global_stats": "False"
      }, 
      "inputs": []
    }, 
    {
      "op": "null", 
      "name": "stage3_unit20_bn3_moving_var", 
      "attr": {
        "__init__": "[\"one\", {}]", 
        "eps": "2e-05", 
        "fix_gamma": "False", 
        "momentum": "0.9", 
        "use_global_stats": "False"
      }, 
      "inputs": []
    }, 
    {
      "op": "BatchNorm", 
      "name": "stage3_unit20_bn3", 
      "attr": {
        "eps": "2e-05", 
        "fix_gamma": "False", 
        "momentum": "0.9", 
        "use_global_stats": "False"
      }, 
      "inputs": [[686, 0, 0], [687, 0, 0], [688, 0, 0], [689, 0, 0], [690, 0, 0]]
    }, 
    {
      "op": "Activation", 
      "name": "stage3_unit20_relu3", 
      "attr": {"act_type": "relu"}, 
      "inputs": [[691, 0, 0]]
    }, 
    {
      "op": "null", 
      "name": "stage3_unit20_conv3_weight", 
      "inputs": []
    }, 
    {
      "op": "Convolution", 
      "name": "stage3_unit20_conv3", 
      "attr": {
        "cudnn_off": "False", 
        "dilate": "(1,1)", 
        "kernel": "(1,1)", 
        "no_bias": "True", 
        "num_filter": "1024", 
        "num_group": "1", 
        "pad": "(0,0)", 
        "stride": "(1,1)", 
        "workspace": "512"
      }, 
      "inputs": [[692, 0, 0], [693, 0, 0]]
    }, 
    {
      "op": "elemwise_add", 
      "name": "_plus26", 
      "inputs": [[694, 0, 0], [670, 0, 0]]
    }, 
    {
      "op": "null", 
      "name": "stage3_unit21_bn1_gamma", 
      "inputs": []
    }, 
    {
      "op": "null", 
      "name": "stage3_unit21_bn1_beta", 
      "inputs": []
    }, 
    {
      "op": "null", 
      "name": "stage3_unit21_bn1_moving_mean", 
      "attr": {
        "__init__": "[\"zero\", {}]", 
        "eps": "2e-05", 
        "fix_gamma": "False", 
        "momentum": "0.9", 
        "use_global_stats": "False"
      }, 
      "inputs": []
    }, 
    {
      "op": "null", 
      "name": "stage3_unit21_bn1_moving_var", 
      "attr": {
        "__init__": "[\"one\", {}]", 
        "eps": "2e-05", 
        "fix_gamma": "False", 
        "momentum": "0.9", 
        "use_global_stats": "False"
      }, 
      "inputs": []
    }, 
    {
      "op": "BatchNorm", 
      "name": "stage3_unit21_bn1", 
      "attr": {
        "eps": "2e-05", 
        "fix_gamma": "False", 
        "momentum": "0.9", 
        "use_global_stats": "False"
      }, 
      "inputs": [[695, 0, 0], [696, 0, 0], [697, 0, 0], [698, 0, 0], [699, 0, 0]]
    }, 
    {
      "op": "Activation", 
      "name": "stage3_unit21_relu1", 
      "attr": {"act_type": "relu"}, 
      "inputs": [[700, 0, 0]]
    }, 
    {
      "op": "null", 
      "name": "stage3_unit21_conv1_weight", 
      "inputs": []
    }, 
    {
      "op": "Convolution", 
      "name": "stage3_unit21_conv1", 
      "attr": {
        "cudnn_off": "False", 
        "dilate": "(1,1)", 
        "kernel": "(1,1)", 
        "no_bias": "True", 
        "num_filter": "256", 
        "num_group": "1", 
        "pad": "(0,0)", 
        "stride": "(1,1)", 
        "workspace": "512"
      }, 
      "inputs": [[701, 0, 0], [702, 0, 0]]
    }, 
    {
      "op": "null", 
      "name": "stage3_unit21_bn2_gamma", 
      "inputs": []
    }, 
    {
      "op": "null", 
      "name": "stage3_unit21_bn2_beta", 
      "inputs": []
    }, 
    {
      "op": "null", 
      "name": "stage3_unit21_bn2_moving_mean", 
      "attr": {
        "__init__": "[\"zero\", {}]", 
        "eps": "2e-05", 
        "fix_gamma": "False", 
        "momentum": "0.9", 
        "use_global_stats": "False"
      }, 
      "inputs": []
    }, 
    {
      "op": "null", 
      "name": "stage3_unit21_bn2_moving_var", 
      "attr": {
        "__init__": "[\"one\", {}]", 
        "eps": "2e-05", 
        "fix_gamma": "False", 
        "momentum": "0.9", 
        "use_global_stats": "False"
      }, 
      "inputs": []
    }, 
    {
      "op": "BatchNorm", 
      "name": "stage3_unit21_bn2", 
      "attr": {
        "eps": "2e-05", 
        "fix_gamma": "False", 
        "momentum": "0.9", 
        "use_global_stats": "False"
      }, 
      "inputs": [[703, 0, 0], [704, 0, 0], [705, 0, 0], [706, 0, 0], [707, 0, 0]]
    }, 
    {
      "op": "Activation", 
      "name": "stage3_unit21_relu2", 
      "attr": {"act_type": "relu"}, 
      "inputs": [[708, 0, 0]]
    }, 
    {
      "op": "null", 
      "name": "stage3_unit21_conv2_weight", 
      "inputs": []
    }, 
    {
      "op": "Convolution", 
      "name": "stage3_unit21_conv2", 
      "attr": {
        "cudnn_off": "False", 
        "dilate": "(1,1)", 
        "kernel": "(3,3)", 
        "no_bias": "True", 
        "num_filter": "256", 
        "num_group": "1", 
        "pad": "(1,1)", 
        "stride": "(1,1)", 
        "workspace": "512"
      }, 
      "inputs": [[709, 0, 0], [710, 0, 0]]
    }, 
    {
      "op": "null", 
      "name": "stage3_unit21_bn3_gamma", 
      "inputs": []
    }, 
    {
      "op": "null", 
      "name": "stage3_unit21_bn3_beta", 
      "inputs": []
    }, 
    {
      "op": "null", 
      "name": "stage3_unit21_bn3_moving_mean", 
      "attr": {
        "__init__": "[\"zero\", {}]", 
        "eps": "2e-05", 
        "fix_gamma": "False", 
        "momentum": "0.9", 
        "use_global_stats": "False"
      }, 
      "inputs": []
    }, 
    {
      "op": "null", 
      "name": "stage3_unit21_bn3_moving_var", 
      "attr": {
        "__init__": "[\"one\", {}]", 
        "eps": "2e-05", 
        "fix_gamma": "False", 
        "momentum": "0.9", 
        "use_global_stats": "False"
      }, 
      "inputs": []
    }, 
    {
      "op": "BatchNorm", 
      "name": "stage3_unit21_bn3", 
      "attr": {
        "eps": "2e-05", 
        "fix_gamma": "False", 
        "momentum": "0.9", 
        "use_global_stats": "False"
      }, 
      "inputs": [[711, 0, 0], [712, 0, 0], [713, 0, 0], [714, 0, 0], [715, 0, 0]]
    }, 
    {
      "op": "Activation", 
      "name": "stage3_unit21_relu3", 
      "attr": {"act_type": "relu"}, 
      "inputs": [[716, 0, 0]]
    }, 
    {
      "op": "null", 
      "name": "stage3_unit21_conv3_weight", 
      "inputs": []
    }, 
    {
      "op": "Convolution", 
      "name": "stage3_unit21_conv3", 
      "attr": {
        "cudnn_off": "False", 
        "dilate": "(1,1)", 
        "kernel": "(1,1)", 
        "no_bias": "True", 
        "num_filter": "1024", 
        "num_group": "1", 
        "pad": "(0,0)", 
        "stride": "(1,1)", 
        "workspace": "512"
      }, 
      "inputs": [[717, 0, 0], [718, 0, 0]]
    }, 
    {
      "op": "elemwise_add", 
      "name": "_plus27", 
      "inputs": [[719, 0, 0], [695, 0, 0]]
    }, 
    {
      "op": "null", 
      "name": "stage3_unit22_bn1_gamma", 
      "inputs": []
    }, 
    {
      "op": "null", 
      "name": "stage3_unit22_bn1_beta", 
      "inputs": []
    }, 
    {
      "op": "null", 
      "name": "stage3_unit22_bn1_moving_mean", 
      "attr": {
        "__init__": "[\"zero\", {}]", 
        "eps": "2e-05", 
        "fix_gamma": "False", 
        "momentum": "0.9", 
        "use_global_stats": "False"
      }, 
      "inputs": []
    }, 
    {
      "op": "null", 
      "name": "stage3_unit22_bn1_moving_var", 
      "attr": {
        "__init__": "[\"one\", {}]", 
        "eps": "2e-05", 
        "fix_gamma": "False", 
        "momentum": "0.9", 
        "use_global_stats": "False"
      }, 
      "inputs": []
    }, 
    {
      "op": "BatchNorm", 
      "name": "stage3_unit22_bn1", 
      "attr": {
        "eps": "2e-05", 
        "fix_gamma": "False", 
        "momentum": "0.9", 
        "use_global_stats": "False"
      }, 
      "inputs": [[720, 0, 0], [721, 0, 0], [722, 0, 0], [723, 0, 0], [724, 0, 0]]
    }, 
    {
      "op": "Activation", 
      "name": "stage3_unit22_relu1", 
      "attr": {"act_type": "relu"}, 
      "inputs": [[725, 0, 0]]
    }, 
    {
      "op": "null", 
      "name": "stage3_unit22_conv1_weight", 
      "inputs": []
    }, 
    {
      "op": "Convolution", 
      "name": "stage3_unit22_conv1", 
      "attr": {
        "cudnn_off": "False", 
        "dilate": "(1,1)", 
        "kernel": "(1,1)", 
        "no_bias": "True", 
        "num_filter": "256", 
        "num_group": "1", 
        "pad": "(0,0)", 
        "stride": "(1,1)", 
        "workspace": "512"
      }, 
      "inputs": [[726, 0, 0], [727, 0, 0]]
    }, 
    {
      "op": "null", 
      "name": "stage3_unit22_bn2_gamma", 
      "inputs": []
    }, 
    {
      "op": "null", 
      "name": "stage3_unit22_bn2_beta", 
      "inputs": []
    }, 
    {
      "op": "null", 
      "name": "stage3_unit22_bn2_moving_mean", 
      "attr": {
        "__init__": "[\"zero\", {}]", 
        "eps": "2e-05", 
        "fix_gamma": "False", 
        "momentum": "0.9", 
        "use_global_stats": "False"
      }, 
      "inputs": []
    }, 
    {
      "op": "null", 
      "name": "stage3_unit22_bn2_moving_var", 
      "attr": {
        "__init__": "[\"one\", {}]", 
        "eps": "2e-05", 
        "fix_gamma": "False", 
        "momentum": "0.9", 
        "use_global_stats": "False"
      }, 
      "inputs": []
    }, 
    {
      "op": "BatchNorm", 
      "name": "stage3_unit22_bn2", 
      "attr": {
        "eps": "2e-05", 
        "fix_gamma": "False", 
        "momentum": "0.9", 
        "use_global_stats": "False"
      }, 
      "inputs": [[728, 0, 0], [729, 0, 0], [730, 0, 0], [731, 0, 0], [732, 0, 0]]
    }, 
    {
      "op": "Activation", 
      "name": "stage3_unit22_relu2", 
      "attr": {"act_type": "relu"}, 
      "inputs": [[733, 0, 0]]
    }, 
    {
      "op": "null", 
      "name": "stage3_unit22_conv2_weight", 
      "inputs": []
    }, 
    {
      "op": "Convolution", 
      "name": "stage3_unit22_conv2", 
      "attr": {
        "cudnn_off": "False", 
        "dilate": "(1,1)", 
        "kernel": "(3,3)", 
        "no_bias": "True", 
        "num_filter": "256", 
        "num_group": "1", 
        "pad": "(1,1)", 
        "stride": "(1,1)", 
        "workspace": "512"
      }, 
      "inputs": [[734, 0, 0], [735, 0, 0]]
    }, 
    {
      "op": "null", 
      "name": "stage3_unit22_bn3_gamma", 
      "inputs": []
    }, 
    {
      "op": "null", 
      "name": "stage3_unit22_bn3_beta", 
      "inputs": []
    }, 
    {
      "op": "null", 
      "name": "stage3_unit22_bn3_moving_mean", 
      "attr": {
        "__init__": "[\"zero\", {}]", 
        "eps": "2e-05", 
        "fix_gamma": "False", 
        "momentum": "0.9", 
        "use_global_stats": "False"
      }, 
      "inputs": []
    }, 
    {
      "op": "null", 
      "name": "stage3_unit22_bn3_moving_var", 
      "attr": {
        "__init__": "[\"one\", {}]", 
        "eps": "2e-05", 
        "fix_gamma": "False", 
        "momentum": "0.9", 
        "use_global_stats": "False"
      }, 
      "inputs": []
    }, 
    {
      "op": "BatchNorm", 
      "name": "stage3_unit22_bn3", 
      "attr": {
        "eps": "2e-05", 
        "fix_gamma": "False", 
        "momentum": "0.9", 
        "use_global_stats": "False"
      }, 
      "inputs": [[736, 0, 0], [737, 0, 0], [738, 0, 0], [739, 0, 0], [740, 0, 0]]
    }, 
    {
      "op": "Activation", 
      "name": "stage3_unit22_relu3", 
      "attr": {"act_type": "relu"}, 
      "inputs": [[741, 0, 0]]
    }, 
    {
      "op": "null", 
      "name": "stage3_unit22_conv3_weight", 
      "inputs": []
    }, 
    {
      "op": "Convolution", 
      "name": "stage3_unit22_conv3", 
      "attr": {
        "cudnn_off": "False", 
        "dilate": "(1,1)", 
        "kernel": "(1,1)", 
        "no_bias": "True", 
        "num_filter": "1024", 
        "num_group": "1", 
        "pad": "(0,0)", 
        "stride": "(1,1)", 
        "workspace": "512"
      }, 
      "inputs": [[742, 0, 0], [743, 0, 0]]
    }, 
    {
      "op": "elemwise_add", 
      "name": "_plus28", 
      "inputs": [[744, 0, 0], [720, 0, 0]]
    }, 
    {
      "op": "null", 
      "name": "stage3_unit23_bn1_gamma", 
      "inputs": []
    }, 
    {
      "op": "null", 
      "name": "stage3_unit23_bn1_beta", 
      "inputs": []
    }, 
    {
      "op": "null", 
      "name": "stage3_unit23_bn1_moving_mean", 
      "attr": {
        "__init__": "[\"zero\", {}]", 
        "eps": "2e-05", 
        "fix_gamma": "False", 
        "momentum": "0.9", 
        "use_global_stats": "False"
      }, 
      "inputs": []
    }, 
    {
      "op": "null", 
      "name": "stage3_unit23_bn1_moving_var", 
      "attr": {
        "__init__": "[\"one\", {}]", 
        "eps": "2e-05", 
        "fix_gamma": "False", 
        "momentum": "0.9", 
        "use_global_stats": "False"
      }, 
      "inputs": []
    }, 
    {
      "op": "BatchNorm", 
      "name": "stage3_unit23_bn1", 
      "attr": {
        "eps": "2e-05", 
        "fix_gamma": "False", 
        "momentum": "0.9", 
        "use_global_stats": "False"
      }, 
      "inputs": [[745, 0, 0], [746, 0, 0], [747, 0, 0], [748, 0, 0], [749, 0, 0]]
    }, 
    {
      "op": "Activation", 
      "name": "stage3_unit23_relu1", 
      "attr": {"act_type": "relu"}, 
      "inputs": [[750, 0, 0]]
    }, 
    {
      "op": "null", 
      "name": "stage3_unit23_conv1_weight", 
      "inputs": []
    }, 
    {
      "op": "Convolution", 
      "name": "stage3_unit23_conv1", 
      "attr": {
        "cudnn_off": "False", 
        "dilate": "(1,1)", 
        "kernel": "(1,1)", 
        "no_bias": "True", 
        "num_filter": "256", 
        "num_group": "1", 
        "pad": "(0,0)", 
        "stride": "(1,1)", 
        "workspace": "512"
      }, 
      "inputs": [[751, 0, 0], [752, 0, 0]]
    }, 
    {
      "op": "null", 
      "name": "stage3_unit23_bn2_gamma", 
      "inputs": []
    }, 
    {
      "op": "null", 
      "name": "stage3_unit23_bn2_beta", 
      "inputs": []
    }, 
    {
      "op": "null", 
      "name": "stage3_unit23_bn2_moving_mean", 
      "attr": {
        "__init__": "[\"zero\", {}]", 
        "eps": "2e-05", 
        "fix_gamma": "False", 
        "momentum": "0.9", 
        "use_global_stats": "False"
      }, 
      "inputs": []
    }, 
    {
      "op": "null", 
      "name": "stage3_unit23_bn2_moving_var", 
      "attr": {
        "__init__": "[\"one\", {}]", 
        "eps": "2e-05", 
        "fix_gamma": "False", 
        "momentum": "0.9", 
        "use_global_stats": "False"
      }, 
      "inputs": []
    }, 
    {
      "op": "BatchNorm", 
      "name": "stage3_unit23_bn2", 
      "attr": {
        "eps": "2e-05", 
        "fix_gamma": "False", 
        "momentum": "0.9", 
        "use_global_stats": "False"
      }, 
      "inputs": [[753, 0, 0], [754, 0, 0], [755, 0, 0], [756, 0, 0], [757, 0, 0]]
    }, 
    {
      "op": "Activation", 
      "name": "stage3_unit23_relu2", 
      "attr": {"act_type": "relu"}, 
      "inputs": [[758, 0, 0]]
    }, 
    {
      "op": "null", 
      "name": "stage3_unit23_conv2_weight", 
      "inputs": []
    }, 
    {
      "op": "Convolution", 
      "name": "stage3_unit23_conv2", 
      "attr": {
        "cudnn_off": "False", 
        "dilate": "(1,1)", 
        "kernel": "(3,3)", 
        "no_bias": "True", 
        "num_filter": "256", 
        "num_group": "1", 
        "pad": "(1,1)", 
        "stride": "(1,1)", 
        "workspace": "512"
      }, 
      "inputs": [[759, 0, 0], [760, 0, 0]]
    }, 
    {
      "op": "null", 
      "name": "stage3_unit23_bn3_gamma", 
      "inputs": []
    }, 
    {
      "op": "null", 
      "name": "stage3_unit23_bn3_beta", 
      "inputs": []
    }, 
    {
      "op": "null", 
      "name": "stage3_unit23_bn3_moving_mean", 
      "attr": {
        "__init__": "[\"zero\", {}]", 
        "eps": "2e-05", 
        "fix_gamma": "False", 
        "momentum": "0.9", 
        "use_global_stats": "False"
      }, 
      "inputs": []
    }, 
    {
      "op": "null", 
      "name": "stage3_unit23_bn3_moving_var", 
      "attr": {
        "__init__": "[\"one\", {}]", 
        "eps": "2e-05", 
        "fix_gamma": "False", 
        "momentum": "0.9", 
        "use_global_stats": "False"
      }, 
      "inputs": []
    }, 
    {
      "op": "BatchNorm", 
      "name": "stage3_unit23_bn3", 
      "attr": {
        "eps": "2e-05", 
        "fix_gamma": "False", 
        "momentum": "0.9", 
        "use_global_stats": "False"
      }, 
      "inputs": [[761, 0, 0], [762, 0, 0], [763, 0, 0], [764, 0, 0], [765, 0, 0]]
    }, 
    {
      "op": "Activation", 
      "name": "stage3_unit23_relu3", 
      "attr": {"act_type": "relu"}, 
      "inputs": [[766, 0, 0]]
    }, 
    {
      "op": "null", 
      "name": "stage3_unit23_conv3_weight", 
      "inputs": []
    }, 
    {
      "op": "Convolution", 
      "name": "stage3_unit23_conv3", 
      "attr": {
        "cudnn_off": "False", 
        "dilate": "(1,1)", 
        "kernel": "(1,1)", 
        "no_bias": "True", 
        "num_filter": "1024", 
        "num_group": "1", 
        "pad": "(0,0)", 
        "stride": "(1,1)", 
        "workspace": "512"
      }, 
      "inputs": [[767, 0, 0], [768, 0, 0]]
    }, 
    {
      "op": "elemwise_add", 
      "name": "_plus29", 
      "inputs": [[769, 0, 0], [745, 0, 0]]
    }, 
    {
      "op": "null", 
      "name": "stage4_unit1_bn1_gamma", 
      "inputs": []
    }, 
    {
      "op": "null", 
      "name": "stage4_unit1_bn1_beta", 
      "inputs": []
    }, 
    {
      "op": "null", 
      "name": "stage4_unit1_bn1_moving_mean", 
      "attr": {
        "__init__": "[\"zero\", {}]", 
        "eps": "2e-05", 
        "fix_gamma": "False", 
        "momentum": "0.9", 
        "use_global_stats": "False"
      }, 
      "inputs": []
    }, 
    {
      "op": "null", 
      "name": "stage4_unit1_bn1_moving_var", 
      "attr": {
        "__init__": "[\"one\", {}]", 
        "eps": "2e-05", 
        "fix_gamma": "False", 
        "momentum": "0.9", 
        "use_global_stats": "False"
      }, 
      "inputs": []
    }, 
    {
      "op": "BatchNorm", 
      "name": "stage4_unit1_bn1", 
      "attr": {
        "eps": "2e-05", 
        "fix_gamma": "False", 
        "momentum": "0.9", 
        "use_global_stats": "False"
      }, 
      "inputs": [[770, 0, 0], [771, 0, 0], [772, 0, 0], [773, 0, 0], [774, 0, 0]]
    }, 
    {
      "op": "Activation", 
      "name": "stage4_unit1_relu1", 
      "attr": {"act_type": "relu"}, 
      "inputs": [[775, 0, 0]]
    }, 
    {
      "op": "null", 
      "name": "stage4_unit1_conv1_weight", 
      "inputs": []
    }, 
    {
      "op": "Convolution", 
      "name": "stage4_unit1_conv1", 
      "attr": {
        "cudnn_off": "False", 
        "dilate": "(1,1)", 
        "kernel": "(1,1)", 
        "no_bias": "True", 
        "num_filter": "512", 
        "num_group": "1", 
        "pad": "(0,0)", 
        "stride": "(1,1)", 
        "workspace": "512"
      }, 
      "inputs": [[776, 0, 0], [777, 0, 0]]
    }, 
    {
      "op": "null", 
      "name": "stage4_unit1_bn2_gamma", 
      "inputs": []
    }, 
    {
      "op": "null", 
      "name": "stage4_unit1_bn2_beta", 
      "inputs": []
    }, 
    {
      "op": "null", 
      "name": "stage4_unit1_bn2_moving_mean", 
      "attr": {
        "__init__": "[\"zero\", {}]", 
        "eps": "2e-05", 
        "fix_gamma": "False", 
        "momentum": "0.9", 
        "use_global_stats": "False"
      }, 
      "inputs": []
    }, 
    {
      "op": "null", 
      "name": "stage4_unit1_bn2_moving_var", 
      "attr": {
        "__init__": "[\"one\", {}]", 
        "eps": "2e-05", 
        "fix_gamma": "False", 
        "momentum": "0.9", 
        "use_global_stats": "False"
      }, 
      "inputs": []
    }, 
    {
      "op": "BatchNorm", 
      "name": "stage4_unit1_bn2", 
      "attr": {
        "eps": "2e-05", 
        "fix_gamma": "False", 
        "momentum": "0.9", 
        "use_global_stats": "False"
      }, 
      "inputs": [[778, 0, 0], [779, 0, 0], [780, 0, 0], [781, 0, 0], [782, 0, 0]]
    }, 
    {
      "op": "Activation", 
      "name": "stage4_unit1_relu2", 
      "attr": {"act_type": "relu"}, 
      "inputs": [[783, 0, 0]]
    }, 
    {
      "op": "null", 
      "name": "stage4_unit1_conv2_weight", 
      "inputs": []
    }, 
    {
      "op": "Convolution", 
      "name": "stage4_unit1_conv2", 
      "attr": {
        "cudnn_off": "False", 
        "dilate": "(1,1)", 
        "kernel": "(3,3)", 
        "no_bias": "True", 
        "num_filter": "512", 
        "num_group": "1", 
        "pad": "(1,1)", 
        "stride": "(2,2)", 
        "workspace": "512"
      }, 
      "inputs": [[784, 0, 0], [785, 0, 0]]
    }, 
    {
      "op": "null", 
      "name": "stage4_unit1_bn3_gamma", 
      "inputs": []
    }, 
    {
      "op": "null", 
      "name": "stage4_unit1_bn3_beta", 
      "inputs": []
    }, 
    {
      "op": "null", 
      "name": "stage4_unit1_bn3_moving_mean", 
      "attr": {
        "__init__": "[\"zero\", {}]", 
        "eps": "2e-05", 
        "fix_gamma": "False", 
        "momentum": "0.9", 
        "use_global_stats": "False"
      }, 
      "inputs": []
    }, 
    {
      "op": "null", 
      "name": "stage4_unit1_bn3_moving_var", 
      "attr": {
        "__init__": "[\"one\", {}]", 
        "eps": "2e-05", 
        "fix_gamma": "False", 
        "momentum": "0.9", 
        "use_global_stats": "False"
      }, 
      "inputs": []
    }, 
    {
      "op": "BatchNorm", 
      "name": "stage4_unit1_bn3", 
      "attr": {
        "eps": "2e-05", 
        "fix_gamma": "False", 
        "momentum": "0.9", 
        "use_global_stats": "False"
      }, 
      "inputs": [[786, 0, 0], [787, 0, 0], [788, 0, 0], [789, 0, 0], [790, 0, 0]]
    }, 
    {
      "op": "Activation", 
      "name": "stage4_unit1_relu3", 
      "attr": {"act_type": "relu"}, 
      "inputs": [[791, 0, 0]]
    }, 
    {
      "op": "null", 
      "name": "stage4_unit1_conv3_weight", 
      "inputs": []
    }, 
    {
      "op": "Convolution", 
      "name": "stage4_unit1_conv3", 
      "attr": {
        "cudnn_off": "False", 
        "dilate": "(1,1)", 
        "kernel": "(1,1)", 
        "no_bias": "True", 
        "num_filter": "2048", 
        "num_group": "1", 
        "pad": "(0,0)", 
        "stride": "(1,1)", 
        "workspace": "512"
      }, 
      "inputs": [[792, 0, 0], [793, 0, 0]]
    }, 
    {
      "op": "null", 
      "name": "stage4_unit1_sc_weight", 
      "inputs": []
    }, 
    {
      "op": "Convolution", 
      "name": "stage4_unit1_sc", 
      "attr": {
        "cudnn_off": "False", 
        "dilate": "(1,1)", 
        "kernel": "(1,1)", 
        "no_bias": "True", 
        "num_filter": "2048", 
        "num_group": "1", 
        "pad": "(0,0)", 
        "stride": "(2,2)", 
        "workspace": "512"
      }, 
      "inputs": [[776, 0, 0], [795, 0, 0]]
    }, 
    {
      "op": "elemwise_add", 
      "name": "_plus30", 
      "inputs": [[794, 0, 0], [796, 0, 0]]
    }, 
    {
      "op": "null", 
      "name": "stage4_unit2_bn1_gamma", 
      "inputs": []
    }, 
    {
      "op": "null", 
      "name": "stage4_unit2_bn1_beta", 
      "inputs": []
    }, 
    {
      "op": "null", 
      "name": "stage4_unit2_bn1_moving_mean", 
      "attr": {
        "__init__": "[\"zero\", {}]", 
        "eps": "2e-05", 
        "fix_gamma": "False", 
        "momentum": "0.9", 
        "use_global_stats": "False"
      }, 
      "inputs": []
    }, 
    {
      "op": "null", 
      "name": "stage4_unit2_bn1_moving_var", 
      "attr": {
        "__init__": "[\"one\", {}]", 
        "eps": "2e-05", 
        "fix_gamma": "False", 
        "momentum": "0.9", 
        "use_global_stats": "False"
      }, 
      "inputs": []
    }, 
    {
      "op": "BatchNorm", 
      "name": "stage4_unit2_bn1", 
      "attr": {
        "eps": "2e-05", 
        "fix_gamma": "False", 
        "momentum": "0.9", 
        "use_global_stats": "False"
      }, 
      "inputs": [[797, 0, 0], [798, 0, 0], [799, 0, 0], [800, 0, 0], [801, 0, 0]]
    }, 
    {
      "op": "Activation", 
      "name": "stage4_unit2_relu1", 
      "attr": {"act_type": "relu"}, 
      "inputs": [[802, 0, 0]]
    }, 
    {
      "op": "null", 
      "name": "stage4_unit2_conv1_weight", 
      "inputs": []
    }, 
    {
      "op": "Convolution", 
      "name": "stage4_unit2_conv1", 
      "attr": {
        "cudnn_off": "False", 
        "dilate": "(1,1)", 
        "kernel": "(1,1)", 
        "no_bias": "True", 
        "num_filter": "512", 
        "num_group": "1", 
        "pad": "(0,0)", 
        "stride": "(1,1)", 
        "workspace": "512"
      }, 
      "inputs": [[803, 0, 0], [804, 0, 0]]
    }, 
    {
      "op": "null", 
      "name": "stage4_unit2_bn2_gamma", 
      "inputs": []
    }, 
    {
      "op": "null", 
      "name": "stage4_unit2_bn2_beta", 
      "inputs": []
    }, 
    {
      "op": "null", 
      "name": "stage4_unit2_bn2_moving_mean", 
      "attr": {
        "__init__": "[\"zero\", {}]", 
        "eps": "2e-05", 
        "fix_gamma": "False", 
        "momentum": "0.9", 
        "use_global_stats": "False"
      }, 
      "inputs": []
    }, 
    {
      "op": "null", 
      "name": "stage4_unit2_bn2_moving_var", 
      "attr": {
        "__init__": "[\"one\", {}]", 
        "eps": "2e-05", 
        "fix_gamma": "False", 
        "momentum": "0.9", 
        "use_global_stats": "False"
      }, 
      "inputs": []
    }, 
    {
      "op": "BatchNorm", 
      "name": "stage4_unit2_bn2", 
      "attr": {
        "eps": "2e-05", 
        "fix_gamma": "False", 
        "momentum": "0.9", 
        "use_global_stats": "False"
      }, 
      "inputs": [[805, 0, 0], [806, 0, 0], [807, 0, 0], [808, 0, 0], [809, 0, 0]]
    }, 
    {
      "op": "Activation", 
      "name": "stage4_unit2_relu2", 
      "attr": {"act_type": "relu"}, 
      "inputs": [[810, 0, 0]]
    }, 
    {
      "op": "null", 
      "name": "stage4_unit2_conv2_weight", 
      "inputs": []
    }, 
    {
      "op": "Convolution", 
      "name": "stage4_unit2_conv2", 
      "attr": {
        "cudnn_off": "False", 
        "dilate": "(1,1)", 
        "kernel": "(3,3)", 
        "no_bias": "True", 
        "num_filter": "512", 
        "num_group": "1", 
        "pad": "(1,1)", 
        "stride": "(1,1)", 
        "workspace": "512"
      }, 
      "inputs": [[811, 0, 0], [812, 0, 0]]
    }, 
    {
      "op": "null", 
      "name": "stage4_unit2_bn3_gamma", 
      "inputs": []
    }, 
    {
      "op": "null", 
      "name": "stage4_unit2_bn3_beta", 
      "inputs": []
    }, 
    {
      "op": "null", 
      "name": "stage4_unit2_bn3_moving_mean", 
      "attr": {
        "__init__": "[\"zero\", {}]", 
        "eps": "2e-05", 
        "fix_gamma": "False", 
        "momentum": "0.9", 
        "use_global_stats": "False"
      }, 
      "inputs": []
    }, 
    {
      "op": "null", 
      "name": "stage4_unit2_bn3_moving_var", 
      "attr": {
        "__init__": "[\"one\", {}]", 
        "eps": "2e-05", 
        "fix_gamma": "False", 
        "momentum": "0.9", 
        "use_global_stats": "False"
      }, 
      "inputs": []
    }, 
    {
      "op": "BatchNorm", 
      "name": "stage4_unit2_bn3", 
      "attr": {
        "eps": "2e-05", 
        "fix_gamma": "False", 
        "momentum": "0.9", 
        "use_global_stats": "False"
      }, 
      "inputs": [[813, 0, 0], [814, 0, 0], [815, 0, 0], [816, 0, 0], [817, 0, 0]]
    }, 
    {
      "op": "Activation", 
      "name": "stage4_unit2_relu3", 
      "attr": {"act_type": "relu"}, 
      "inputs": [[818, 0, 0]]
    }, 
    {
      "op": "null", 
      "name": "stage4_unit2_conv3_weight", 
      "inputs": []
    }, 
    {
      "op": "Convolution", 
      "name": "stage4_unit2_conv3", 
      "attr": {
        "cudnn_off": "False", 
        "dilate": "(1,1)", 
        "kernel": "(1,1)", 
        "no_bias": "True", 
        "num_filter": "2048", 
        "num_group": "1", 
        "pad": "(0,0)", 
        "stride": "(1,1)", 
        "workspace": "512"
      }, 
      "inputs": [[819, 0, 0], [820, 0, 0]]
    }, 
    {
      "op": "elemwise_add", 
      "name": "_plus31", 
      "inputs": [[821, 0, 0], [797, 0, 0]]
    }, 
    {
      "op": "null", 
      "name": "stage4_unit3_bn1_gamma", 
      "inputs": []
    }, 
    {
      "op": "null", 
      "name": "stage4_unit3_bn1_beta", 
      "inputs": []
    }, 
    {
      "op": "null", 
      "name": "stage4_unit3_bn1_moving_mean", 
      "attr": {
        "__init__": "[\"zero\", {}]", 
        "eps": "2e-05", 
        "fix_gamma": "False", 
        "momentum": "0.9", 
        "use_global_stats": "False"
      }, 
      "inputs": []
    }, 
    {
      "op": "null", 
      "name": "stage4_unit3_bn1_moving_var", 
      "attr": {
        "__init__": "[\"one\", {}]", 
        "eps": "2e-05", 
        "fix_gamma": "False", 
        "momentum": "0.9", 
        "use_global_stats": "False"
      }, 
      "inputs": []
    }, 
    {
      "op": "BatchNorm", 
      "name": "stage4_unit3_bn1", 
      "attr": {
        "eps": "2e-05", 
        "fix_gamma": "False", 
        "momentum": "0.9", 
        "use_global_stats": "False"
      }, 
      "inputs": [[822, 0, 0], [823, 0, 0], [824, 0, 0], [825, 0, 0], [826, 0, 0]]
    }, 
    {
      "op": "Activation", 
      "name": "stage4_unit3_relu1", 
      "attr": {"act_type": "relu"}, 
      "inputs": [[827, 0, 0]]
    }, 
    {
      "op": "null", 
      "name": "stage4_unit3_conv1_weight", 
      "inputs": []
    }, 
    {
      "op": "Convolution", 
      "name": "stage4_unit3_conv1", 
      "attr": {
        "cudnn_off": "False", 
        "dilate": "(1,1)", 
        "kernel": "(1,1)", 
        "no_bias": "True", 
        "num_filter": "512", 
        "num_group": "1", 
        "pad": "(0,0)", 
        "stride": "(1,1)", 
        "workspace": "512"
      }, 
      "inputs": [[828, 0, 0], [829, 0, 0]]
    }, 
    {
      "op": "null", 
      "name": "stage4_unit3_bn2_gamma", 
      "inputs": []
    }, 
    {
      "op": "null", 
      "name": "stage4_unit3_bn2_beta", 
      "inputs": []
    }, 
    {
      "op": "null", 
      "name": "stage4_unit3_bn2_moving_mean", 
      "attr": {
        "__init__": "[\"zero\", {}]", 
        "eps": "2e-05", 
        "fix_gamma": "False", 
        "momentum": "0.9", 
        "use_global_stats": "False"
      }, 
      "inputs": []
    }, 
    {
      "op": "null", 
      "name": "stage4_unit3_bn2_moving_var", 
      "attr": {
        "__init__": "[\"one\", {}]", 
        "eps": "2e-05", 
        "fix_gamma": "False", 
        "momentum": "0.9", 
        "use_global_stats": "False"
      }, 
      "inputs": []
    }, 
    {
      "op": "BatchNorm", 
      "name": "stage4_unit3_bn2", 
      "attr": {
        "eps": "2e-05", 
        "fix_gamma": "False", 
        "momentum": "0.9", 
        "use_global_stats": "False"
      }, 
      "inputs": [[830, 0, 0], [831, 0, 0], [832, 0, 0], [833, 0, 0], [834, 0, 0]]
    }, 
    {
      "op": "Activation", 
      "name": "stage4_unit3_relu2", 
      "attr": {"act_type": "relu"}, 
      "inputs": [[835, 0, 0]]
    }, 
    {
      "op": "null", 
      "name": "stage4_unit3_conv2_weight", 
      "inputs": []
    }, 
    {
      "op": "Convolution", 
      "name": "stage4_unit3_conv2", 
      "attr": {
        "cudnn_off": "False", 
        "dilate": "(1,1)", 
        "kernel": "(3,3)", 
        "no_bias": "True", 
        "num_filter": "512", 
        "num_group": "1", 
        "pad": "(1,1)", 
        "stride": "(1,1)", 
        "workspace": "512"
      }, 
      "inputs": [[836, 0, 0], [837, 0, 0]]
    }, 
    {
      "op": "null", 
      "name": "stage4_unit3_bn3_gamma", 
      "inputs": []
    }, 
    {
      "op": "null", 
      "name": "stage4_unit3_bn3_beta", 
      "inputs": []
    }, 
    {
      "op": "null", 
      "name": "stage4_unit3_bn3_moving_mean", 
      "attr": {
        "__init__": "[\"zero\", {}]", 
        "eps": "2e-05", 
        "fix_gamma": "False", 
        "momentum": "0.9", 
        "use_global_stats": "False"
      }, 
      "inputs": []
    }, 
    {
      "op": "null", 
      "name": "stage4_unit3_bn3_moving_var", 
      "attr": {
        "__init__": "[\"one\", {}]", 
        "eps": "2e-05", 
        "fix_gamma": "False", 
        "momentum": "0.9", 
        "use_global_stats": "False"
      }, 
      "inputs": []
    }, 
    {
      "op": "BatchNorm", 
      "name": "stage4_unit3_bn3", 
      "attr": {
        "eps": "2e-05", 
        "fix_gamma": "False", 
        "momentum": "0.9", 
        "use_global_stats": "False"
      }, 
      "inputs": [[838, 0, 0], [839, 0, 0], [840, 0, 0], [841, 0, 0], [842, 0, 0]]
    }, 
    {
      "op": "Activation", 
      "name": "stage4_unit3_relu3", 
      "attr": {"act_type": "relu"}, 
      "inputs": [[843, 0, 0]]
    }, 
    {
      "op": "null", 
      "name": "stage4_unit3_conv3_weight", 
      "inputs": []
    }, 
    {
      "op": "Convolution", 
      "name": "stage4_unit3_conv3", 
      "attr": {
        "cudnn_off": "False", 
        "dilate": "(1,1)", 
        "kernel": "(1,1)", 
        "no_bias": "True", 
        "num_filter": "2048", 
        "num_group": "1", 
        "pad": "(0,0)", 
        "stride": "(1,1)", 
        "workspace": "512"
      }, 
      "inputs": [[844, 0, 0], [845, 0, 0]]
    }, 
    {
      "op": "elemwise_add", 
      "name": "_plus32", 
      "inputs": [[846, 0, 0], [822, 0, 0]]
    }, 
    {
      "op": "null", 
      "name": "bn1_gamma", 
      "inputs": []
    }, 
    {
      "op": "null", 
      "name": "bn1_beta", 
      "inputs": []
    }, 
    {
      "op": "null", 
      "name": "bn1_moving_mean", 
      "attr": {
        "__init__": "[\"zero\", {}]", 
        "eps": "2e-05", 
        "fix_gamma": "False", 
        "momentum": "0.9", 
        "use_global_stats": "False"
      }, 
      "inputs": []
    }, 
    {
      "op": "null", 
      "name": "bn1_moving_var", 
      "attr": {
        "__init__": "[\"one\", {}]", 
        "eps": "2e-05", 
        "fix_gamma": "False", 
        "momentum": "0.9", 
        "use_global_stats": "False"
      }, 
      "inputs": []
    }, 
    {
      "op": "BatchNorm", 
      "name": "bn1", 
      "attr": {
        "eps": "2e-05", 
        "fix_gamma": "False", 
        "momentum": "0.9", 
        "use_global_stats": "False"
      }, 
      "inputs": [[847, 0, 0], [848, 0, 0], [849, 0, 0], [850, 0, 0], [851, 0, 0]]
    }, 
    {
      "op": "Activation", 
      "name": "relu1", 
      "attr": {"act_type": "relu"}, 
      "inputs": [[852, 0, 0]]
    }, 
    {
      "op": "Pooling", 
      "name": "pool1", 
      "attr": {
        "global_pool": "True", 
        "kernel": "(7,7)", 
        "pad": "(0,0)", 
        "pool_type": "avg", 
        "pooling_convention": "valid", 
        "stride": "(1,1)"
      }, 
      "inputs": [[853, 0, 0]]
    }, 
    {
      "op": "Flatten", 
      "name": "flatten0", 
      "inputs": [[854, 0, 0]]
    }, 
    {
      "op": "null", 
      "name": "fc1_weight", 
      "attr": {"num_hidden": "15527"}, 
      "inputs": []
    }, 
    {
      "op": "null", 
      "name": "fc1_bias", 
      "attr": {"num_hidden": "15527"}, 
      "inputs": []
    }, 
    {
      "op": "FullyConnected", 
      "name": "fc1", 
      "attr": {"num_hidden": "15527"}, 
      "inputs": [[855, 0, 0], [856, 0, 0], [857, 0, 0]]
    }, 
    {
      "op": "null", 
      "name": "softmax_label", 
      "inputs": []
    }, 
    {
      "op": "SoftmaxOutput", 
      "name": "softmax", 
      "inputs": [[858, 0, 0], [859, 0, 0]]
    }
  ], 
  "arg_nodes": [
    0, 
    1, 
    2, 
    3, 
    4, 
    6, 
    8, 
    9, 
    10, 
    11, 
    15, 
    16, 
    17, 
    18, 
    21, 
    23, 
    24, 
    25, 
    26, 
    29, 
    31, 
    32, 
    33, 
    34, 
    37, 
    39, 
    42, 
    43, 
    44, 
    45, 
    48, 
    50, 
    51, 
    52, 
    53, 
    56, 
    58, 
    59, 
    60, 
    61, 
    64, 
    67, 
    68, 
    69, 
    70, 
    73, 
    75, 
    76, 
    77, 
    78, 
    81, 
    83, 
    84, 
    85, 
    86, 
    89, 
    92, 
    93, 
    94, 
    95, 
    98, 
    100, 
    101, 
    102, 
    103, 
    106, 
    108, 
    109, 
    110, 
    111, 
    114, 
    116, 
    119, 
    120, 
    121, 
    122, 
    125, 
    127, 
    128, 
    129, 
    130, 
    133, 
    135, 
    136, 
    137, 
    138, 
    141, 
    144, 
    145, 
    146, 
    147, 
    150, 
    152, 
    153, 
    154, 
    155, 
    158, 
    160, 
    161, 
    162, 
    163, 
    166, 
    169, 
    170, 
    171, 
    172, 
    175, 
    177, 
    178, 
    179, 
    180, 
    183, 
    185, 
    186, 
    187, 
    188, 
    191, 
    194, 
    195, 
    196, 
    197, 
    200, 
    202, 
    203, 
    204, 
    205, 
    208, 
    210, 
    211, 
    212, 
    213, 
    216, 
    218, 
    221, 
    222, 
    223, 
    224, 
    227, 
    229, 
    230, 
    231, 
    232, 
    235, 
    237, 
    238, 
    239, 
    240, 
    243, 
    246, 
    247, 
    248, 
    249, 
    252, 
    254, 
    255, 
    256, 
    257, 
    260, 
    262, 
    263, 
    264, 
    265, 
    268, 
    271, 
    272, 
    273, 
    274, 
    277, 
    279, 
    280, 
    281, 
    282, 
    285, 
    287, 
    288, 
    289, 
    290, 
    293, 
    296, 
    297, 
    298, 
    299, 
    302, 
    304, 
    305, 
    306, 
    307, 
    310, 
    312, 
    313, 
    314, 
    315, 
    318, 
    321, 
    322, 
    323, 
    324, 
    327, 
    329, 
    330, 
    331, 
    332, 
    335, 
    337, 
    338, 
    339, 
    340, 
    343, 
    346, 
    347, 
    348, 
    349, 
    352, 
    354, 
    355, 
    356, 
    357, 
    360, 
    362, 
    363, 
    364, 
    365, 
    368, 
    371, 
    372, 
    373, 
    374, 
    377, 
    379, 
    380, 
    381, 
    382, 
    385, 
    387, 
    388, 
    389, 
    390, 
    393, 
    396, 
    397, 
    398, 
    399, 
    402, 
    404, 
    405, 
    406, 
    407, 
    410, 
    412, 
    413, 
    414, 
    415, 
    418, 
    421, 
    422, 
    423, 
    424, 
    427, 
    429, 
    430, 
    431, 
    432, 
    435, 
    437, 
    438, 
    439, 
    440, 
    443, 
    446, 
    447, 
    448, 
    449, 
    452, 
    454, 
    455, 
    456, 
    457, 
    460, 
    462, 
    463, 
    464, 
    465, 
    468, 
    471, 
    472, 
    473, 
    474, 
    477, 
    479, 
    480, 
    481, 
    482, 
    485, 
    487, 
    488, 
    489, 
    490, 
    493, 
    496, 
    497, 
    498, 
    499, 
    502, 
    504, 
    505, 
    506, 
    507, 
    510, 
    512, 
    513, 
    514, 
    515, 
    518, 
    521, 
    522, 
    523, 
    524, 
    527, 
    529, 
    530, 
    531, 
    532, 
    535, 
    537, 
    538, 
    539, 
    540, 
    543, 
    546, 
    547, 
    548, 
    549, 
    552, 
    554, 
    555, 
    556, 
    557, 
    560, 
    562, 
    563, 
    564, 
    565, 
    568, 
    571, 
    572, 
    573, 
    574, 
    577, 
    579, 
    580, 
    581, 
    582, 
    585, 
    587, 
    588, 
    589, 
    590, 
    593, 
    596, 
    597, 
    598, 
    599, 
    602, 
    604, 
    605, 
    606, 
    607, 
    610, 
    612, 
    613, 
    614, 
    615, 
    618, 
    621, 
    622, 
    623, 
    624, 
    627, 
    629, 
    630, 
    631, 
    632, 
    635, 
    637, 
    638, 
    639, 
    640, 
    643, 
    646, 
    647, 
    648, 
    649, 
    652, 
    654, 
    655, 
    656, 
    657, 
    660, 
    662, 
    663, 
    664, 
    665, 
    668, 
    671, 
    672, 
    673, 
    674, 
    677, 
    679, 
    680, 
    681, 
    682, 
    685, 
    687, 
    688, 
    689, 
    690, 
    693, 
    696, 
    697, 
    698, 
    699, 
    702, 
    704, 
    705, 
    706, 
    707, 
    710, 
    712, 
    713, 
    714, 
    715, 
    718, 
    721, 
    722, 
    723, 
    724, 
    727, 
    729, 
    730, 
    731, 
    732, 
    735, 
    737, 
    738, 
    739, 
    740, 
    743, 
    746, 
    747, 
    748, 
    749, 
    752, 
    754, 
    755, 
    756, 
    757, 
    760, 
    762, 
    763, 
    764, 
    765, 
    768, 
    771, 
    772, 
    773, 
    774, 
    777, 
    779, 
    780, 
    781, 
    782, 
    785, 
    787, 
    788, 
    789, 
    790, 
    793, 
    795, 
    798, 
    799, 
    800, 
    801, 
    804, 
    806, 
    807, 
    808, 
    809, 
    812, 
    814, 
    815, 
    816, 
    817, 
    820, 
    823, 
    824, 
    825, 
    826, 
    829, 
    831, 
    832, 
    833, 
    834, 
    837, 
    839, 
    840, 
    841, 
    842, 
    845, 
    848, 
    849, 
    850, 
    851, 
    856, 
    857, 
    859
  ], 
  "node_row_ptr": [
    0, 
    1, 
    2, 
    3, 
    4, 
    5, 
    8, 
    9, 
    10, 
    11, 
    12, 
    13, 
    14, 
    17, 
    18, 
    19, 
    20, 
    21, 
    22, 
    23, 
    26, 
    27, 
    28, 
    29, 
    30, 
    31, 
    32, 
    33, 
    36, 
    37, 
    38, 
    39, 
    40, 
    41, 
    42, 
    43, 
    46, 
    47, 
    48, 
    49, 
    50, 
    51, 
    52, 
    53, 
    54, 
    55, 
    56, 
    59, 
    60, 
    61, 
    62, 
    63, 
    64, 
    65, 
    66, 
    69, 
    70, 
    71, 
    72, 
    73, 
    74, 
    75, 
    76, 
    79, 
    80, 
    81, 
    82, 
    83, 
    84, 
    85, 
    86, 
    87, 
    90, 
    91, 
    92, 
    93, 
    94, 
    95, 
    96, 
    97, 
    100, 
    101, 
    102, 
    103, 
    104, 
    105, 
    106, 
    107, 
    110, 
    111, 
    112, 
    113, 
    114, 
    115, 
    116, 
    117, 
    118, 
    121, 
    122, 
    123, 
    124, 
    125, 
    126, 
    127, 
    128, 
    131, 
    132, 
    133, 
    134, 
    135, 
    136, 
    137, 
    138, 
    141, 
    142, 
    143, 
    144, 
    145, 
    146, 
    147, 
    148, 
    149, 
    150, 
    151, 
    154, 
    155, 
    156, 
    157, 
    158, 
    159, 
    160, 
    161, 
    164, 
    165, 
    166, 
    167, 
    168, 
    169, 
    170, 
    171, 
    174, 
    175, 
    176, 
    177, 
    178, 
    179, 
    180, 
    181, 
    182, 
    185, 
    186, 
    187, 
    188, 
    189, 
    190, 
    191, 
    192, 
    195, 
    196, 
    197, 
    198, 
    199, 
    200, 
    201, 
    202, 
    205, 
    206, 
    207, 
    208, 
    209, 
    210, 
    211, 
    212, 
    213, 
    216, 
    217, 
    218, 
    219, 
    220, 
    221, 
    222, 
    223, 
    226, 
    227, 
    228, 
    229, 
    230, 
    231, 
    232, 
    233, 
    236, 
    237, 
    238, 
    239, 
    240, 
    241, 
    242, 
    243, 
    244, 
    247, 
    248, 
    249, 
    250, 
    251, 
    252, 
    253, 
    254, 
    257, 
    258, 
    259, 
    260, 
    261, 
    262, 
    263, 
    264, 
    267, 
    268, 
    269, 
    270, 
    271, 
    272, 
    273, 
    274, 
    275, 
    276, 
    277, 
    280, 
    281, 
    282, 
    283, 
    284, 
    285, 
    286, 
    287, 
    290, 
    291, 
    292, 
    293, 
    294, 
    295, 
    296, 
    297, 
    300, 
    301, 
    302, 
    303, 
    304, 
    305, 
    306, 
    307, 
    308, 
    311, 
    312, 
    313, 
    314, 
    315, 
    316, 
    317, 
    318, 
    321, 
    322, 
    323, 
    324, 
    325, 
    326, 
    327, 
    328, 
    331, 
    332, 
    333, 
    334, 
    335, 
    336, 
    337, 
    338, 
    339, 
    342, 
    343, 
    344, 
    345, 
    346, 
    347, 
    348, 
    349, 
    352, 
    353, 
    354, 
    355, 
    356, 
    357, 
    358, 
    359, 
    362, 
    363, 
    364, 
    365, 
    366, 
    367, 
    368, 
    369, 
    370, 
    373, 
    374, 
    375, 
    376, 
    377, 
    378, 
    379, 
    380, 
    383, 
    384, 
    385, 
    386, 
    387, 
    388, 
    389, 
    390, 
    393, 
    394, 
    395, 
    396, 
    397, 
    398, 
    399, 
    400, 
    401, 
    404, 
    405, 
    406, 
    407, 
    408, 
    409, 
    410, 
    411, 
    414, 
    415, 
    416, 
    417, 
    418, 
    419, 
    420, 
    421, 
    424, 
    425, 
    426, 
    427, 
    428, 
    429, 
    430, 
    431, 
    432, 
    435, 
    436, 
    437, 
    438, 
    439, 
    440, 
    441, 
    442, 
    445, 
    446, 
    447, 
    448, 
    449, 
    450, 
    451, 
    452, 
    455, 
    456, 
    457, 
    458, 
    459, 
    460, 
    461, 
    462, 
    463, 
    466, 
    467, 
    468, 
    469, 
    470, 
    471, 
    472, 
    473, 
    476, 
    477, 
    478, 
    479, 
    480, 
    481, 
    482, 
    483, 
    486, 
    487, 
    488, 
    489, 
    490, 
    491, 
    492, 
    493, 
    494, 
    497, 
    498, 
    499, 
    500, 
    501, 
    502, 
    503, 
    504, 
    507, 
    508, 
    509, 
    510, 
    511, 
    512, 
    513, 
    514, 
    517, 
    518, 
    519, 
    520, 
    521, 
    522, 
    523, 
    524, 
    525, 
    528, 
    529, 
    530, 
    531, 
    532, 
    533, 
    534, 
    535, 
    538, 
    539, 
    540, 
    541, 
    542, 
    543, 
    544, 
    545, 
    548, 
    549, 
    550, 
    551, 
    552, 
    553, 
    554, 
    555, 
    556, 
    559, 
    560, 
    561, 
    562, 
    563, 
    564, 
    565, 
    566, 
    569, 
    570, 
    571, 
    572, 
    573, 
    574, 
    575, 
    576, 
    579, 
    580, 
    581, 
    582, 
    583, 
    584, 
    585, 
    586, 
    587, 
    590, 
    591, 
    592, 
    593, 
    594, 
    595, 
    596, 
    597, 
    600, 
    601, 
    602, 
    603, 
    604, 
    605, 
    606, 
    607, 
    610, 
    611, 
    612, 
    613, 
    614, 
    615, 
    616, 
    617, 
    618, 
    621, 
    622, 
    623, 
    624, 
    625, 
    626, 
    627, 
    628, 
    631, 
    632, 
    633, 
    634, 
    635, 
    636, 
    637, 
    638, 
    641, 
    642, 
    643, 
    644, 
    645, 
    646, 
    647, 
    648, 
    649, 
    652, 
    653, 
    654, 
    655, 
    656, 
    657, 
    658, 
    659, 
    662, 
    663, 
    664, 
    665, 
    666, 
    667, 
    668, 
    669, 
    672, 
    673, 
    674, 
    675, 
    676, 
    677, 
    678, 
    679, 
    680, 
    683, 
    684, 
    685, 
    686, 
    687, 
    688, 
    689, 
    690, 
    693, 
    694, 
    695, 
    696, 
    697, 
    698, 
    699, 
    700, 
    703, 
    704, 
    705, 
    706, 
    707, 
    708, 
    709, 
    710, 
    711, 
    714, 
    715, 
    716, 
    717, 
    718, 
    719, 
    720, 
    721, 
    724, 
    725, 
    726, 
    727, 
    728, 
    729, 
    730, 
    731, 
    734, 
    735, 
    736, 
    737, 
    738, 
    739, 
    740, 
    741, 
    742, 
    745, 
    746, 
    747, 
    748, 
    749, 
    750, 
    751, 
    752, 
    755, 
    756, 
    757, 
    758, 
    759, 
    760, 
    761, 
    762, 
    765, 
    766, 
    767, 
    768, 
    769, 
    770, 
    771, 
    772, 
    773, 
    776, 
    777, 
    778, 
    779, 
    780, 
    781, 
    782, 
    783, 
    786, 
    787, 
    788, 
    789, 
    790, 
    791, 
    792, 
    793, 
    796, 
    797, 
    798, 
    799, 
    800, 
    801, 
    802, 
    803, 
    804, 
    807, 
    808, 
    809, 
    810, 
    811, 
    812, 
    813, 
    814, 
    817, 
    818, 
    819, 
    820, 
    821, 
    822, 
    823, 
    824, 
    827, 
    828, 
    829, 
    830, 
    831, 
    832, 
    833, 
    834, 
    835, 
    838, 
    839, 
    840, 
    841, 
    842, 
    843, 
    844, 
    845, 
    848, 
    849, 
    850, 
    851, 
    852, 
    853, 
    854, 
    855, 
    858, 
    859, 
    860, 
    861, 
    862, 
    863, 
    864, 
    865, 
    866, 
    869, 
    870, 
    871, 
    872, 
    873, 
    874, 
    875, 
    876, 
    879, 
    880, 
    881, 
    882, 
    883, 
    884, 
    885, 
    886, 
    889, 
    890, 
    891, 
    892, 
    893, 
    894, 
    895, 
    896, 
    897, 
    900, 
    901, 
    902, 
    903, 
    904, 
    905, 
    906, 
    907, 
    910, 
    911, 
    912, 
    913, 
    914, 
    915, 
    916, 
    917, 
    920, 
    921, 
    922, 
    923, 
    924, 
    925, 
    926, 
    927, 
    928, 
    931, 
    932, 
    933, 
    934, 
    935, 
    936, 
    937, 
    938, 
    941, 
    942, 
    943, 
    944, 
    945, 
    946, 
    947, 
    948, 
    951, 
    952, 
    953, 
    954, 
    955, 
    956, 
    957, 
    958, 
    959, 
    962, 
    963, 
    964, 
    965, 
    966, 
    967, 
    968, 
    969, 
    972, 
    973, 
    974, 
    975, 
    976, 
    977, 
    978, 
    979, 
    982, 
    983, 
    984, 
    985, 
    986, 
    987, 
    988, 
    989, 
    990, 
    991, 
    992, 
    995, 
    996, 
    997, 
    998, 
    999, 
    1000, 
    1001, 
    1002, 
    1005, 
    1006, 
    1007, 
    1008, 
    1009, 
    1010, 
    1011, 
    1012, 
    1015, 
    1016, 
    1017, 
    1018, 
    1019, 
    1020, 
    1021, 
    1022, 
    1023, 
    1026, 
    1027, 
    1028, 
    1029, 
    1030, 
    1031, 
    1032, 
    1033, 
    1036, 
    1037, 
    1038, 
    1039, 
    1040, 
    1041, 
    1042, 
    1043, 
    1046, 
    1047, 
    1048, 
    1049, 
    1050, 
    1051, 
    1052, 
    1053, 
    1054, 
    1057, 
    1058, 
    1059, 
    1060, 
    1061, 
    1062, 
    1063, 
    1064, 
    1065
  ], 
  "heads": [[860, 0, 0]], 
  "attrs": {"mxnet_version": ["int", 904]}
}